agent_2.onnx (onnx, 49596 bytes, 22 tensors)

initial.0.weight f4 [8, 5, 3, 3]
0	0x3cc50f42	0.024055127
1	0x3b9ab2a1	0.0047210013
2	0xbe861b3d	-0.26192656
3	0xbd80811c	-0.06274626
4	0x3e2623d9	0.16224612
5	0xbd0ae6f7	-0.03391167
6	0xbd5356eb	-0.051596563
7	0x3bcb5ac5	0.006205889
8	0xbd01f946	-0.031731866
9	0xbd7cceac	-0.061720535
10	0xbe224a6e	-0.15848705
11	0x3db38a02	0.08766557
12	0xbe48fd56	-0.1962789
13	0x3d6cdbd6	0.05782684
14	0xbd983fb9	-0.07434029
15	0xbe4ea021	-0.20178272
16	0xbddb7e83	-0.107174896
17	0xbcc2cad4	-0.023778357
18	0x3dd1fb51	0.10253013
19	0x3de1b89c	0.110215396
20	0xbdda86b5	-0.106702246
21	0x3e490e70	0.19634414
22	0x3e0eefdb	0.13958685
23	0x3d6e91d7	0.058244552
24	0xbbe72b49	-0.0070547205
25	0x3e801647	0.25016996
26	0x3d8dfcf9	0.06933016
27	0x3e0071ed	0.12543459
28	0xbd21125d	-0.039324153
29	0xbe89a6d3	-0.2688509
30	0x3d6caf2b	0.05778424
31	0x3dd4e26e	0.103947505
32	0xbe2dc238	-0.1696862
33	0xbe13137a	-0.14362898
34	0xbd295b2d	-0.041346718
35	0xbdce633b	-0.100775205
36	0x3ea8c306	0.3296129
37	0x3e3d8aef	0.1851003
38	0x3e69a68b	0.22817437
39	0xbd307182	-0.043077
40	0x3d7ca6ce	0.061682515
41	0x3d2d4cf1	0.042309705
42	0x3d938127	0.07202368
43	0x3e138823	0.14407401
44	0xbd2ee694	-0.042700365
45	0x3d048c16	0.03236016
46	0xbddb6d22	-0.10714175
47	0x3c2c6a65	0.010523413
48	0xbe1e43a8	-0.15455496
49	0x3e8b54e7	0.27213213
50	0xbd681c93	-0.056667875
51	0xbce7716a	-0.028252322
52	0xbd4bf18b	-0.0497909
53	0xba8ba13d	-0.0010652911
54	0x3913702e	0.00014060803
55	0x3d19612d	0.03744619
56	0xbdb3d643	-0.087811016
57	0xbc37b582	-0.011212708
58	0x3e199d73	0.15001468
59	0x3ca030cc	0.019554518
60	0xbdc09efc	-0.09405324
61	0xbd736f54	-0.059432343
62	0xbe5f968a	-0.2183477
63	0x3e1f9ffa	0.1558837
64	0x3e66b32c	0.22529286
65	0x3e0b8289	0.13624014
66	0x3dd16760	0.10224795
67	0x3e87208e	0.26392025
68	0x3e6a260c	0.22866076
69	0x3d559ea2	0.052153237
70	0x3e1abf6d	0.15112086
71	0x3d965b0c	0.073415846
72	0x3e52c689	0.20583548
73	0x3e5669b7	0.20938765
74	0x3e522a45	0.20523937
75	0x3e5deb2c	0.21671742
76	0x3e75e342	0.24012473
77	0x3e613e35	0.21996386
78	0xbbe57b62	-0.007003234
79	0x3e7d4e97	0.24737011
80	0x3d93401f	0.071899645
81	0x3df816ab	0.121136986
82	0x3d4b2af6	0.049601518
83	0x3e564abe	0.2092695
84	0x3e2030a4	0.15643555
85	0x3ded972e	0.11601101
86	0x3de6ff6b	0.11279186
87	0x3d975b80	0.07390499
88	0x3db7df8d	0.08978186
89	0x3db13d99	0.08654327
90	0xbe13d35f	-0.144361
91	0x3d9b55f5	0.075847544
92	0x3d885bb0	0.06658113
93	0x3cf5fef0	0.03002879
94	0xbd5877bf	-0.052848574
95	0x3e117045	0.14202984
96	0xbd470fd5	-0.048599083
97	0x3cace423	0.021104878
98	0xbd8bb823	-0.06822231
99	0x3cd202cb	0.025636097
100	0xbd5d00a3	-0.053955685
101	0x3d980d0d	0.07424364
102	0xbcac3157	-0.02101962
103	0x3c7a2174	0.015266765
104	0xbd163ce9	-0.036679182
105	0xbc01259f	-0.007882505
106	0x3d99b207	0.07504659
107	0xbdd239e0	-0.10264945
108	0xbaa44871	-0.0012533796
109	0x3e10f7f1	0.14157082
110	0xbe265ffe	-0.16247556
111	0xbdfb6347	-0.12274795
112	0x3ddbdf88	0.107359946
113	0xbe13b4a5	-0.14424379
114	0x3dcab2ad	0.09897361
115	0xbca1a82b	-0.019733509
116	0xbd23cf60	-0.03999269
117	0x3e248abd	0.1606855
118	0xbcd3c991	-0.02585295
119	0x3e4e9e15	0.20177491
120	0x3ba816d9	0.005129677
121	0x3dfc920c	0.12332544
122	0xbdf1b849	-0.11802728
123	0x3d4f15f9	0.050558064
124	0xbe36eb2b	-0.17863147
125	0x3d3230a4	0.04350342
126	0x3e1003ff	0.14064024
127	0xbe212d49	-0.15739931
128	0x3c55b298	0.013043068
129	0xbe6f51f0	-0.233711
130	0x3dd27bfe	0.10277556
131	0xbd6da0e4	-0.058014765
132	0x3e2f9b88	0.17149174
133	0x3e0d7f9b	0.13818209
134	0xbdfb4e58	-0.12270802
135	0xbf03db97	-0.5150694
136	0xbdda0043	-0.10644581
137	0xbdd1fbb9	-0.102530904
138	0xbd31f27a	-0.043444134
139	0x3c6227f2	0.013803469
140	0x3d8cfa98	0.068837345
141	0x3dff090c	0.124528974
142	0x3c006d22	0.007838519
143	0x3d2cb5a0	0.0421654
144	0x3d0d4776	0.03449198
145	0xbd08cafe	-0.033396713
146	0x3da9c742	0.082899585
147	0x3c9a8b68	0.018865302
148	0x3ab5c3bf	0.0013867541
149	0xbe2af8bc	-0.16696447
150	0xbd50291a	-0.050820448
151	0x3d159a0a	0.036523856
152	0xbe1e643b	-0.15467922
153	0xbd85410e	-0.06506549
154	0xbdc38cdd	-0.09548352
155	0xbe79340b	-0.24336259
156	0xbe540a4e	-0.20707056
157	0x3e0a4f8e	0.1350691
158	0xbdf79007	-0.12088018
159	0xbe905321	-0.28188422
160	0xbced865e	-0.028994735
161	0xbe04a7e7	-0.12954675
162	0x3d449f06	0.04800322
163	0xbeb814b1	-0.35953286
164	0xbde1c52e	-0.11023937
165	0xbd2b4443	-0.041813146
166	0x3c7c4930	0.015398309
167	0x3dd4e622	0.10395457
168	0xbd96939c	-0.07352373
169	0x3e03af3c	0.12859815
170	0x3e14ce37	0.1453179
171	0x3d425255	0.0474418
172	0xbe1119e4	-0.14170033
173	0xbd82e72c	-0.06391749
174	0x3dd48c40	0.10378313
175	0xbe31bcbf	-0.17357157
176	0xbd092870	-0.03348583
177	0xbd0ede1c	-0.03487979
178	0xbd568279	-0.052370522
179	0xbdfa5a15	-0.12224213
180	0x3c881a80	0.016614199
181	0x3ca78e68	0.020453647
182	0xbbcf495a	-0.006325883
183	0xbd726e62	-0.0591873
184	0xbd4ef3ee	-0.0505256
185	0xbced226d	-0.02894708
186	0xbe0b1338	-0.1358155
187	0x3d95f6ee	0.07322489
188	0xbdacb165	-0.08432273
189	0xbb8afb3b	-0.004241375
190	0x3e06472d	0.13113089
191	0x3ce0715d	0.027397806
192	0xbd64446a	-0.055729307
193	0xbc91fbfd	-0.017820353
194	0x3db8de1a	0.090267375
195	0x3df9ae04	0.12191394
196	0xbd503dbc	-0.050840124
197	0xbdd3f74e	-0.10349904
198	0x3da04cf6	0.07827179
199	0xbe58bbbc	-0.21165365
200	0xbdd1f336	-0.10251467
201	0xbe2cb1b8	-0.1686467
202	0xbd88f9bf	-0.0668826
203	0x3e16cb86	0.14726076
204	0x3d71c4bc	0.05902551
205	0xbd5af02d	-0.053451706
206	0x3cc3a26d	0.023881162
207	0xbe9ff76c	-0.31243455
208	0xbe92ef2f	-0.28698108
209	0xbe01de92	-0.1268256
210	0xbd20d5d8	-0.039266437
211	0x3d1af5c9	0.037832055
212	0xbd0717e1	-0.032981757
213	0xbb7c47a6	-0.0038494854
214	0x3c9ced71	0.01915619
215	0xbe3296c7	-0.1744033
216	0xbd02d1d0	-0.031938374
217	0x3d5a4ccb	0.05329589
218	0xbc9d335b	-0.019189527
219	0xbdf71fd9	-0.12066621
220	0xbd5c59d7	-0.053796615
221	0x3e0f53e2	0.13996843
222	0x3d20502f	0.03913897
223	0x3ddee052	0.108826295
224	0xbcde501b	-0.027137807
225	0xbe38dd9e	-0.1805329
226	0xbe00e229	-0.12586273
227	0x3e0946a8	0.1340586
228	0xbe103b4a	-0.14085117
229	0x3be9654f	0.0071226726
230	0x3c400904	0.0117208995
231	0xbce608af	-0.028080313
232	0xbd8fde29	-0.070247956
233	0xbce2e905	-0.027699003
234	0x3d0a5562	0.033772834
235	0xbdf658e6	-0.12028675
236	0xbe52ccff	-0.20586012
237	0x3d5e1838	0.054222316
238	0xbcbacf32	-0.022803877
239	0xbe0090e8	-0.12555277
240	0x3bcd4987	0.0062648687
241	0x3dbb52b3	0.09146633
242	0x3cad9795	0.021190444
243	0xbd75913c	-0.05995296
244	0xbdfa455a	-0.12220259
245	0xbd02f233	-0.03196926
246	0xbd802371	-0.0625676
247	0x3dd301bf	0.103030674
248	0xbd91701f	-0.071014635
249	0x3cf64503	0.030062204
250	0xbd1a8bb7	-0.0377309
251	0xbd64bffe	-0.05584716
252	0xbd8ea941	-0.06965876
253	0x3e36f10a	0.17865387
254	0x3cffbbcc	0.031217478
255	0xbd924291	-0.07141603

initial.0.bias f4 [8]
0	0xbc703e91	-0.0146633545
1	0x3d913876	0.07090847
2	0xbd90b93a	-0.07066579
3	0xbd303daa	-0.043027557
4	0x3d9f1f46	0.07769637
5	0x3e0986d3	0.13430338
6	0x38a6e6af	7.958465e-05
7	0xbd8d174b	-0.068892084

initial.2.weight f4 [8, 8, 1, 1]
0	0x3d1a11da	0.03761468
1	0x3c8a5a8c	0.01688888
2	0x3e954393	0.29153118
3	0xbea42dda	-0.32066232
4	0xbe94bea1	-0.29051688
5	0xbe9f80ef	-0.31153056
6	0xbe82a80b	-0.25518832
7	0xbeae3260	-0.34022808
8	0x3d6de51e	0.05807983
9	0xbe22ef91	-0.159117
10	0xbe74a557	-0.23891197
11	0x3e1801f1	0.1484449
12	0x3df99389	0.12186343
13	0xbea851a4	-0.32874787
14	0x3d64fbef	0.055904325
15	0x3e9f3ed9	0.31102636
16	0x3dceb508	0.10093123
17	0x3e91b309	0.28456905
18	0xbe5bb0b6	-0.21454129
19	0x3e80ddbb	0.25169167
20	0xbe726d27	-0.23674451
21	0xbe4036f1	-0.18770958
22	0x3d550468	0.052006155
23	0x3e27f187	0.16400729
24	0x3d6c20fd	0.057648648
25	0x3e9ea4a5	0.3098499
26	0xbe945cc4	-0.28977025
27	0xbe941c33	-0.28927764
28	0x3bb5420d	0.0055315555
29	0xbd8abc01	-0.0677414
30	0x3e308325	0.17237528
31	0x3e988720	0.29790592
32	0xbdbedccf	-0.0931946
33	0x3ae52f07	0.0017485329
34	0x3ea87f6f	0.32909724
35	0x3ebdb2b8	0.37050414
36	0xbe670333	-0.22559814
37	0x3ec3b6a0	0.3822527
38	0xbd2b2a42	-0.041788347
39	0xbef6a909	-0.4817584
40	0xbd74e246	-0.059786104
41	0xbda18881	-0.07887364
42	0x3de22eff	0.1104412
43	0x3e4c2290	0.1993506
44	0xbe86bc46	-0.26315516
45	0xbe102265	-0.1407562
46	0xbe10d35f	-0.14143132
47	0x3e91f714	0.28508818
48	0x3e5720dc	0.21008629
49	0x3ec399b2	0.38203198
50	0x3e75e539	0.24013223
51	0xbd997e60	-0.07494807
52	0x3e65c0b8	0.22436798
53	0x3e705366	0.23469314
54	0xbd175c59	-0.036953304
55	0x3d8a2645	0.067455806
56	0x3e3e079f	0.18557595
57	0x3dc4efea	0.096160725
58	0xbefc44ee	-0.4927134
59	0xbee1b63a	-0.4408434
60	0x3db4a04b	0.08819636
61	0xbc92a10f	-0.017899064
62	0x3e57a876	0.21060356
63	0xbea064fd	-0.31327048

initial.2.bias f4 [8]
0	0x3e602c4b	0.21891896
1	0xbea62fda	-0.32458383
2	0xbe9654d7	-0.29361603
3	0xbdef0b64	-0.116720945
4	0xbdfbd5c6	-0.122966334
5	0xbe719fff	-0.2359619
6	0x3e0d6d6a	0.1381127
7	0xbe5760fc	-0.2103309

down1.0.weight f4 [8, 8, 1, 1]
0	0xbf06242d	-0.5239895
1	0xbe52d310	-0.20588326
2	0xbd72fb16	-0.059321485
3	0x3ec686fd	0.38774863
4	0x3e9ca31d	0.30593196
5	0xbda0c31b	-0.078497134
6	0xbe6af5db	-0.22945349
7	0x3f0d32c4	0.5515559
8	0xbd861619	-0.065471835
9	0xbea862d9	-0.32887915
10	0xbe41bd94	-0.18919975
11	0x3d145ec3	0.036223184
12	0x3de1e148	0.11029297
13	0xbe7880be	-0.24267861
14	0x3ec6b3b4	0.38808978
15	0x3e546eb2	0.20745352
16	0xbe35c3ba	-0.17750445
17	0xbe9e7405	-0.3094789
18	0x3d3550d5	0.04426654
19	0xbeb4f103	-0.35340127
20	0xbea70a8f	-0.32625243
21	0x3ea35d91	0.31907323
22	0x3c0a461e	0.008439569
23	0x3e5622ac	0.20911664
24	0x3eae6526	0.34061545
25	0xbe760f7f	-0.24029349
26	0xbca2fdb0	-0.019896358
27	0x3e28c267	0.16480409
28	0xbed9cb53	-0.42537937
29	0x3dbec788	0.09315401
30	0xbdca23cf	-0.09870111
31	0xbf2b2eaf	-0.6686811
32	0x3e93f4f1	0.28897813
33	0xbe778ac2	-0.24174026
34	0x3d7f13fc	0.062274918
35	0xbe764451	-0.24049498
36	0xbe8d7f2e	-0.27636093
37	0xbe328bbc	-0.17436117
38	0xbb4a4faf	-0.003087025
39	0x3e3a6651	0.18203093
40	0x3eaacf27	0.3336117
41	0xbc1fe7ed	-0.009759885
42	0x3ea7b944	0.32758534
43	0xbda91298	-0.082554996
44	0xbeeee486	-0.46658725
45	0xbd947753	-0.07249322
46	0x3eb1caca	0.34725028
47	0xbe82dce2	-0.25559145
48	0xbee63715	-0.449639
49	0xbd829480	-0.063759804
50	0xbe8f7c1d	-0.28024378
51	0x3d8b6e24	0.06808117
52	0x3c76b700	0.015058279
53	0x3e9d91ef	0.307754
54	0x3e97a8dc	0.29621017
55	0xbe2ee1fe	-0.17078397
56	0x3d8e1330	0.069372535
57	0x3e7fa34e	0.2496464
58	0x3d77e19e	0.0605179
59	0x3e1bd1f5	0.15216811
60	0x3e7ba9db	0.24576513
61	0x3e699da5	0.22814043
62	0xbe869ff2	-0.26293904
63	0x3db6afc7	0.089202456

down1.0.bias f4 [8]
0	0x3e5767c5	0.21035679
1	0xbe2f89d4	-0.17142421
2	0xbe2cc209	-0.16870894
3	0x3e1ea2c7	0.15491782
4	0xbea6427b	-0.32472596
5	0xbd625d1f	-0.05526459
6	0x3d5572e9	0.05211154
7	0xbd3b3fd4	-0.045715168

down1.2.weight f4 [12, 8, 3, 3]
0	0xbdd5c790	-0.10438454
1	0xbc54d9eb	-0.012991409
2	0x3bef57aa	0.0073041515
3	0x3d81d417	0.06339281
4	0x3d077b8e	0.033076815
5	0xbd52ae3a	-0.051435687
6	0xbd3eb5c5	-0.046560068
7	0xbdb34d82	-0.08755018
8	0xbafdd49f	-0.0019365734
9	0x3d841574	0.06449404
10	0xbdb1210c	-0.08648881
11	0x3d86967d	0.06571672
12	0xbd2134dc	-0.03935705
13	0x3d861aee	0.06548105
14	0xbd29622f	-0.0413534
15	0x3b93ac16	0.004506598
16	0xbdc67b85	-0.09691528
17	0x3d6da56b	0.058019083
18	0x3cc2b694	0.0237687
19	0x3da59a89	0.08086116
20	0xbb6d204b	-0.0036182578
21	0xbd614aff	-0.055003162
22	0xbc866cd3	-0.016409313
23	0xbd1876ae	-0.037222557
24	0x3cb971da	0.022637296
25	0x3d1889b9	0.037240718
26	0xbbbb879a	-0.005722952
27	0x3d97fb2b	0.07420953
28	0xbbe7e742	-0.0070771286
29	0xbc36611a	-0.011131549
30	0x3d7ded65	0.061993975
31	0xbd02e5cd	-0.031957436
32	0x3d33c8d8	0.04389271
33	0x3dcfde3c	0.1014981
34	0xbda15067	-0.07876664
35	0x3cc66c87	0.024221672
36	0xbce10881	-0.027469875
37	0xbccd3bf3	-0.025053
38	0xbdb6c015	-0.089233555
39	0x3d7d48a2	0.061836846
40	0x3d45087d	0.0481038
41	0x3da45ba5	0.08025292
42	0xbca92629	-0.020648079
43	0x3d0151ee	0.031572275
44	0xbcfeb2d5	-0.031091133
45	0xbd602e9b	-0.054731946
46	0xbe06f196	-0.13178095
47	0x3d2fe9c6	0.042947553
48	0x3ccd9066	0.025093269
49	0xbd679311	-0.056536738
50	0xbdc495a9	-0.09598858
51	0x3d429447	0.04750469
52	0x3c8eab6b	0.017415723
53	0x3b83b705	0.0040196204
54	0xbd988edd	-0.07449124
55	0x3db14f96	0.08657758
56	0xbce29613	-0.027659452
57	0xbdfd9475	-0.123818316
58	0xbd123afe	-0.03570079
59	0x3d68d88a	0.056847133
60	0xbd869257	-0.06570881
61	0xbdd374ed	-0.10325036
62	0x3dd607ef	0.10450732
63	0x3d532486	0.051548503
64	0xbdc50282	-0.09619619
65	0xbbee35d5	-0.007269601
66	0xbd481c24	-0.048854962
67	0xbda0b125	-0.07846288
68	0x3d6f5239	0.058428023
69	0xbd8b7008	-0.06808478
70	0xbdb584be	-0.08863209
71	0x3d29da29	0.04146782
72	0xbd9d59f1	-0.076831706
73	0x3d97ac53	0.07405915
74	0xbe24c8b7	-0.16092192
75	0xbd0d760e	-0.034536414
76	0xbd59c72d	-0.053168464
77	0xbda07f83	-0.07836821
78	0xbd11c725	-0.03559031
79	0xbe850d94	-0.25986922
80	0xbe12ce7b	-0.14336579
81	0x3ca5d86f	0.020244805
82	0x3cd5581f	0.026042996
83	0x3cd9c0f4	0.026581265
84	0x3d4e329d	0.050341237
85	0xbcf621ba	-0.030045379
86	0xbe04ed86	-0.12981233
87	0xbde3c74b	-0.111219965
88	0x3dfc6380	0.123236656
89	0xbd5f75d8	-0.054555744
90	0xbd6d29cf	-0.0579012
91	0xbcecb9ac	-0.028897129
92	0xbdcfaef9	-0.10140795
93	0x3d9bc45e	0.076058134
94	0x3d9ff548	0.078104556
95	0x3d8856d8	0.06657189
96	0xbdaef309	-0.08542449
97	0x3d78888a	0.06067709
98	0xbd904926	-0.07045202
99	0x3dff3b94	0.124625355
100	0x3dfe0d51	0.12404884
101	0x3dc31ac7	0.09526592
102	0x3dd8892e	0.1057304
103	0x3e02fef3	0.12792568
104	0x3dff33b6	0.12461035
105	0x3bd3a68e	0.006459064
106	0xbd93bc30	-0.07213628
107	0xbd736978	-0.059426755
108	0xbd96a047	-0.07354789
109	0xbd2d1a05	-0.042261142
110	0xbde377f5	-0.11106864
111	0x3d424bce	0.047435574
112	0x3d225fa4	0.03964199
113	0xbd8078e6	-0.062730595
114	0x3deb1808	0.11479193
115	0x3d8aae36	0.06771509
116	0x3ddc950e	0.107706174
117	0x3e16a216	0.14710268
118	0x3df85730	0.12126005
119	0x3da0bd57	0.07848614
120	0x3db61e48	0.088924944
121	0xbc9a329b	-0.018822959
122	0x3df27a24	0.11839703
123	0xbd5b94d8	-0.053608745
124	0x3e15517b	0.14581864
125	0xbd320408	-0.043460876
126	0xbd0b75d7	-0.034047928
127	0xbdbcfad9	-0.09227533
128	0xbb67be92	-0.0035361391
129	0xbdcf373b	-0.10117956
130	0xbc3c08b6	-0.011476686
131	0xbdccf681	-0.100079544
132	0xbd813444	-0.06308797
133	0x3cc52633	0.024066066
134	0xbd67488a	-0.056465663
135	0x3db950f1	0.090486415
136	0xbc35664c	-0.011071753
137	0xbd9b3bba	-0.07579751
138	0x3d8d5ee0	0.069028616
139	0x3c6d046c	0.014466386
140	0xbcdaa214	-0.026688613
141	0xbd270d5d	-0.04078423
142	0xbc46c5a5	-0.012132083
143	0xbc9bd81d	-0.01902395
144	0x3df1cc82	0.11806585
145	0xbd26b690	-0.04070145
146	0xbd0ff4fb	-0.03514574
147	0x3e99876d	0.29986134
148	0x3e7774f6	0.24165711
149	0x3e75299c	0.23941654
150	0x3e503af0	0.20334983
151	0x3e9a7384	0.30166256
152	0x3e0f385b	0.13986342
153	0xbd0dd1fc	-0.034624085
154	0x3e04cf35	0.12969668
155	0x3e742da4	0.23845536
156	0x3dfa4e33	0.122219466
157	0x3df45e57	0.119320564
158	0xbd5470b0	-0.05186528
159	0x3e58bcea	0.21165815
160	0xbd190037	-0.03735372
161	0xbda68a07	-0.081317954
162	0x3d3dca00	0.04633522
163	0x3d96b2fd	0.07358358
164	0xbdd43ba5	-0.10362939
165	0xbbd9f937	-0.006652023
166	0x3de53210	0.11191189
167	0xbd1b0306	-0.03784468
168	0x3dcedb87	0.10100465
169	0xbdafa317	-0.08576029
170	0xbda56a13	-0.08076873
171	0xbe1ee7d6	-0.15518126
172	0xbe148d81	-0.14507104
173	0xbdb01300	-0.08597374
174	0x3dd28a60	0.10280299
175	0x3c531b06	0.012884861
176	0x3e0c0b09	0.13676085
177	0x3dfcd130	0.12344587
178	0x3e20a7e8	0.15689051
179	0xbd0157b0	-0.031577766
180	0xbdc27aba	-0.094960645
181	0x3ddae963	0.10689046
182	0xbd048249	-0.032350812
183	0x3d623f13	0.055235934
184	0x3ddf528b	0.10904416
185	0xbc876b2a	-0.016530592
186	0x3de18106	0.110109374
187	0x3d9760d3	0.07391515
188	0x3c9461a1	0.01811296
189	0xbe119083	-0.14215283
190	0x3a95c462	0.0011426324
191	0xbe4ac9db	-0.19803564
192	0xbe9825b1	-0.29716256
193	0xbe9fccf3	-0.3121105
194	0xbdf81b93	-0.12114634
195	0xbe8d6483	-0.27615747
196	0xbec23647	-0.37932035
197	0xbee2af69	-0.44274452
198	0xbe1f7aa5	-0.15574129
199	0x3e020762	0.12698129
200	0x3dc58d11	0.09646047
201	0x3ddc1be0	0.10747504
202	0x3e140aea	0.14457288
203	0x3eaabebd	0.33348647
204	0x3ea55de9	0.3229821
205	0x3e9c5c97	0.3053939
206	0x3e9cd80b	0.30633578
207	0xbd8d7b8f	-0.069083326
208	0x3da51926	0.08061437
209	0x3d80aa35	0.062824644
210	0xbdafb41b	-0.08579274
211	0xbdc59326	-0.09647207
212	0xbdb1fa1b	-0.08690282
213	0x3d9f01f1	0.07764042
214	0xbd720467	-0.05908623
215	0xbda9bd0d	-0.08288012
216	0xbd4cb4ca	-0.0499771
217	0xbdca5aee	-0.09880625
218	0xbd19ed67	-0.03757992
219	0xbd9a40df	-0.075319044
220	0x3c82db02	0.015973572
221	0xbd9821c6	-0.07428317
222	0xbc2a5a0b	-0.0103974445
223	0x3dd5dc40	0.104424
224	0x3daf4211	0.08557523
225	0xbcabbd69	-0.020964341
226	0xbd1011dc	-0.035173282
227	0xbca96aad	-0.02068075
228	0xbc22fa8b	-0.009947429
229	0x3dee8861	0.11647106
230	0xbd8d4fdd	-0.06899998
231	0xbc9e7a84	-0.01934553
232	0x3d2d9184	0.042375103
233	0xbda4db2c	-0.08049616
234	0x3db16142	0.086611286
235	0xbd491ee8	-0.04910174
236	0x3d977692	0.07395662
237	0xbc144761	-0.009050221
238	0x3ccbd929	0.024883823
239	0x3da008ad	0.07814155
240	0x3ceea778	0.02913259
241	0x3dbb45fd	0.091442086
242	0x3d65851d	0.05603515
243	0xbca640c2	-0.02029455
244	0xbd89e95f	-0.06733965
245	0xbd75e54b	-0.060033124
246	0xbda4e5bb	-0.0805163
247	0xbdd46459	-0.10370702
248	0x3dcbe1b2	0.09955157
249	0xbdcf82d4	-0.10132375
250	0xbd69760b	-0.05699734
251	0xbd95edee	-0.07320772
252	0xbdaac643	-0.08338597
253	0xbd5936f3	-0.05303092
254	0x3dbb36b2	0.09141292
255	0x3d29195b	0.041283946

down1.2.bias f4 [12]
0	0xbd9cb6d9	-0.07652063
1	0x3db56691	0.088574536
2	0x3d8b2753	0.0679461
3	0xbdd2c67f	-0.102917664
4	0x3e0a3e52	0.13500336
5	0x3de1a04e	0.11016904
6	0x3d0c8850	0.034309685
7	0x3da07037	0.07833903
8	0x3d264986	0.04059746
9	0x3dd155d0	0.102214456
10	0x3da9449f	0.082650416
11	0xbd8facc8	-0.07015377

down2.0.weight f4 [12, 12, 1, 1]
0	0xbdaa270b	-0.08308228
1	0xbc54fe10	-0.013000026
2	0x3e940f49	0.28917912
3	0xbe5cf1b4	-0.21576577
4	0x3e1de02b	0.15417545
5	0xbdb17bf4	-0.0866622
6	0xbf2c0413	-0.67193717
7	0xbea633f5	-0.32461515
8	0xbea18dcf	-0.31553504
9	0xbea8faf5	-0.33003965
10	0xbe1780ce	-0.14795229
11	0xbe144841	-0.14480688
12	0x3e44f841	0.19235326
13	0xbefa8bb6	-0.48934716
14	0x3ee56009	0.44799832
15	0x3dac6c98	0.0841915
16	0xbe88df30	-0.2673278
17	0xbca78faf	-0.020454256
18	0xbeb2ee84	-0.34947598
19	0x3d0a36f8	0.03374383
20	0x3de416bb	0.11137148
21	0xbd91a37e	-0.07111262
22	0x3c500109	0.012695559
23	0xbeaae53d	-0.3337802
24	0xbe356f83	-0.1771832
25	0x3e8dc2d3	0.27687702
26	0xbec22718	-0.3792045
27	0x3e00a9a5	0.12564714
28	0xbda97077	-0.08273404
29	0x3eb9e151	0.36304715
30	0xbe26c43a	-0.16285792
31	0x3dd307f4	0.10304251
32	0xbde0da00	-0.1097908
33	0xbe237e17	-0.15966068
34	0xbe3e4edb	-0.18584768
35	0xbe3e91cc	-0.18610305
36	0x3dcdbc3f	0.10045671
37	0xbe44a3c2	-0.19203094
38	0xbd522779	-0.051307175
39	0xbe059e39	-0.13048638
40	0xbe05bb2d	-0.13059683
41	0xbe727e36	-0.23680958
42	0xbe4147ef	-0.18875097
43	0xbe2b6bd3	-0.1674035
44	0x3e264734	0.162381
45	0x3e923879	0.2855871
46	0x3da1c2a3	0.07898452
47	0x3ea43408	0.32070947
48	0xbe8ad908	-0.27118707
49	0x3da1bee1	0.078977354
50	0x3eb6dfef	0.35717723
51	0xbd6a8142	-0.057252176
52	0xbe84d466	-0.25943297
53	0xbe1e4507	-0.1545602
54	0xbecf3645	-0.40471092
55	0xbd8a9fcf	-0.06768762
56	0x3d002188	0.031281978
57	0xbea5146b	-0.3224214
58	0xbe61f59e	-0.22066352
59	0x3e4af176	0.19818673
60	0x3cc1c760	0.02365464
61	0xbe7855d8	-0.24251497
62	0xbd0b8aaf	-0.034067806
63	0xbd50d147	-0.050980832
64	0x3e044d15	0.1292003
65	0xbe9b2017	-0.3029792
66	0xbed065d6	-0.40702695
67	0x3cf8c3e1	0.03036684
68	0x3e490111	0.19629313
69	0x3d8f67dc	0.070022315
70	0xbc941d07	-0.018080248
71	0xbe535039	-0.20636071
72	0xbe3e56e4	-0.18587834
73	0xbda6046e	-0.08106314
74	0x3db42666	0.087963864
75	0x3d6d8a36	0.057993136
76	0x3d02e397	0.031955328
77	0x3e51a080	0.20471382
78	0xbeff0a00	-0.49812317
79	0x3d779121	0.06044114
80	0xbdcd3f99	-0.10021896
81	0x3e26dd61	0.16295387
82	0x3e0bac6d	0.13639994
83	0xbe7dcc6e	-0.24785015
84	0x3e0159c0	0.12631893
85	0xbc80acc6	-0.015707385
86	0x3ef4020d	0.47657815
87	0x3e6196b0	0.22030139
88	0x3de8d68d	0.11369047
89	0xbdcd8722	-0.1003554
90	0xbefd62af	-0.49489352
91	0xbe940a1d	-0.28913966
92	0xbe8ab6ce	-0.27092594
93	0xbd88a810	-0.066726804
94	0xbd9bf02b	-0.07614168
95	0xbea47966	-0.3212387
96	0xbe020d9a	-0.12700501
97	0x3caa42f0	0.020783871
98	0x3ebe0619	0.37114027
99	0xbe4b565b	-0.19857161
100	0xbe09f520	-0.13472414
101	0x3dfba065	0.12286452
102	0xbdcb1466	-0.09916
103	0x3cebb25b	0.02877157
104	0x3d69fb6a	0.057124533
105	0x3e51ae0c	0.2047655
106	0xbecb39d9	-0.39692572
107	0xbda9c351	-0.08289207
108	0xbdcc4f69	-0.09976084
109	0xbe7d2f30	-0.24725032
110	0x3e8b4ff7	0.27209446
111	0x3e557b68	0.20847857
112	0xbe1c8872	-0.15286425
113	0xbe562c00	-0.20915222
114	0x3d7461b8	0.059663504
115	0x3e26c08b	0.16284387
116	0x3c7c754d	0.015408826
117	0xbe9527e8	-0.2913201
118	0x3e1d8169	0.15381397
119	0xbe7d04d2	-0.2470887
120	0xbd09b66d	-0.03362124
121	0xbe85b3c6	-0.2611372
122	0x3ee288b0	0.4424491
123	0xbd0cfce8	-0.034420878
124	0xbe1407fc	-0.14456171
125	0x3dcbc993	0.099505566
126	0xbe99a96e	-0.30012077
127	0x3dca9bf7	0.09893029
128	0x3e47e9c7	0.19522773
129	0xbdef4bd4	-0.11684385
130	0xbe1474c0	-0.14497662
131	0xbe292028	-0.16516173
132	0xbd9f070e	-0.077650174
133	0xbd2699d3	-0.040674042
134	0xbe41bac6	-0.18918905
135	0xbe3f04c8	-0.18654168
136	0x3ebc8938	0.3682344
137	0x3e88a656	0.26689404
138	0x3ddd2417	0.10797899
139	0x3eafd9da	0.34345895
140	0x3ebfa148	0.37427735
141	0x3ea4879e	0.32134718
142	0xbdd6d5d1	-0.10490001
143	0xbe2137c1	-0.15743925

down2.0.bias f4 [12]
0	0x3e7ca24c	0.24671286
1	0x3db189c8	0.08668858
2	0x3e4fba4f	0.20285915
3	0x3e966ac2	0.29378325
4	0x3e12ec6a	0.14347997
5	0x3e72409b	0.23657458
6	0x3e5026ec	0.20327348
7	0x3dfa46a2	0.122205034
8	0x3e5830e1	0.21112396
9	0x3e6e2e09	0.23259749
10	0x3e3dfee6	0.18554267
11	0xba9ea2fc	-0.0012103016

down2.2.weight f4 [20, 12, 3, 3]
0	0xbe175290	-0.14777589
1	0xbe0e142c	-0.13874882
2	0xbdf74967	-0.12074547
3	0x3e1f1b58	0.15537775
4	0x3e288b18	0.1645931
5	0x3dbd9997	0.092578106
6	0x3c96b870	0.018398494
7	0x3c94e074	0.018173434
8	0x3d998e9a	0.07497902
9	0x3e098bcb	0.13432233
10	0x3d2cfa09	0.04223064
11	0xbeaa0f8e	-0.33214992
12	0x3abe73e3	0.0014530387
13	0xbd01eabc	-0.031718
14	0xbeab4af8	-0.33455634
15	0x3d92f99b	0.07176515
16	0x3e0e42e9	0.13892712
17	0xbe98a3de	-0.2981252
18	0xbe36adf1	-0.17839791
19	0xbcdaacca	-0.02669372
20	0x3d637b5f	0.055537578
21	0x3b4291b8	0.0029688906
22	0x3e400e01	0.18755342
23	0x3e52f490	0.20601106
24	0x3e0f7bb7	0.14012037
25	0x3e0efe6b	0.1396424
26	0x3dbef145	0.09323362
27	0xbd8bf145	-0.06833128
28	0xbda36b49	-0.079794474
29	0xbe44ad69	-0.19206776
30	0x3e412505	0.18861778
31	0x3e135811	0.14389063
32	0x3bae99d2	0.0053283954
33	0x3dc476b4	0.09592953
34	0x3e1e82a6	0.15479526
35	0x3dba5114	0.09097496
36	0x3d963c83	0.073357604
37	0xbe7acf0f	-0.24493049
38	0xbedfc4d7	-0.43704864
39	0x3e2380b6	0.15967068
40	0x3cc60116	0.02417044
41	0xbe4ebbe4	-0.20188862
42	0x3e066c44	0.13127238
43	0x3d02c3af	0.0319249
44	0xbe6faf7f	-0.2340679
45	0xbe2c14f0	-0.16804862
46	0xbd84617d	-0.06463907
47	0xbdfd4934	-0.12367478
48	0x3dc01151	0.09378303
49	0x3dd42a72	0.10359658
50	0x3e0c14f0	0.13679862
51	0x3e771bfe	0.24131772
52	0x3d9aa29b	0.07550546
53	0x3dc5479d	0.096328
54	0xbdaf04f3	-0.08545866
55	0xbe17bca8	-0.1481806
56	0xbd159539	-0.036519263
57	0x3e5e62ae	0.21717331
58	0x3de5f236	0.11227839
59	0x3d4b9fe9	0.04971305
60	0x3e25261f	0.16127823
61	0xbc597d03	-0.013274434
62	0xbc4ee186	-0.012627011
63	0xbc397360	-0.011319011
64	0xbdb1aa2d	-0.086750366
65	0xbf13a420	-0.5767231
66	0x3e3e048c	0.18556422
67	0x3da95183	0.082675
68	0xbe7a344d	-0.24434014
69	0x3ced7b18	0.02898936
70	0x3bb4e31d	0.005520238
71	0xbe302dce	-0.17204973
72	0xbd931ea5	-0.07183579
73	0xbd07a30a	-0.03311447
74	0xbe47893a	-0.19485942
75	0x3e1f9eb1	0.1558788
76	0x3e19fc8d	0.15037747
77	0x3d1b133a	0.037860133
78	0x3e2be1ab	0.16785304
79	0x3e2c4eb8	0.16826904
80	0xbcb378f6	-0.021908265
81	0xbe59e3e4	-0.2127834
82	0xbd813c66	-0.06310348
83	0xbe923fb6	-0.28564233
84	0x3e0ab6ca	0.13546291
85	0x3b84ce09	0.0040528816
86	0xbe397190	-0.18109727
87	0x3df08432	0.11743964
88	0x3dc16c7e	0.09444521
89	0xbe897522	-0.26847178
90	0xbc9cb5eb	-0.019129714
91	0xbda9e674	-0.082959086
92	0xbe8e19c9	-0.27754048
93	0x3e520984	0.20511442
94	0xbd2c8a08	-0.042123824
95	0x3d18d2ad	0.03731029
96	0x3ce80ebd	0.02832734
97	0xbc6d09f6	-0.014467707
98	0xbd64b0e7	-0.05583277
99	0x3d537bad	0.05163162
100	0xbd6824b8	-0.056675643
101	0xbe167a2b	-0.14695041
102	0x3e2865f1	0.16445138
103	0x3dd69dc1	0.10479308
104	0x3d4fa7ca	0.050697125
105	0x3e90ecbf	0.28305623
106	0x3e43c595	0.1911834
107	0x3e542f9e	0.2072129
108	0xbc93bd50	-0.018034607
109	0xbd9788d6	-0.07399146
110	0x3be82fd5	0.00708578
111	0xbacbaad7	-0.0015538585
112	0x3d9e355b	0.077250205
113	0xbd8ab63e	-0.06773041
114	0x3d040ca4	0.032238618
115	0x3d9a242c	0.075264305
116	0xbdd722d8	-0.10504693
117	0xbdc4b8f4	-0.096055895
118	0x3d688ccd	0.056774903
119	0xbcf79ee5	-0.030227134
120	0x3dc5d03a	0.09658857
121	0x3de96a31	0.113972075
122	0xbdce6cbf	-0.100793354
123	0x3abe96bb	0.0014540771
124	0x3d976ea0	0.07394147
125	0xbd112e0c	-0.035444304
126	0xbca01d02	-0.019545082
127	0xbdc6bde5	-0.09704188
128	0xbd444473	-0.04791684
129	0xbccff360	-0.025384605
130	0x3b05a28b	0.0020391073
131	0xbdfc99c4	-0.12334016
132	0xbdb997ca	-0.090621546
133	0xbdd5076e	-0.10401808
134	0xbe3536bd	-0.17696662
135	0xbd1263d6	-0.035739742
136	0x3d52ea4b	0.05149297
137	0xbc752b63	-0.0149639575
138	0x3d948550	0.0725199
139	0x3d8342c7	0.06409221
140	0x3ceecd29	0.029150562
141	0xbdc223a2	-0.09479453
142	0xbdcefcd0	-0.10106814
143	0xbde6c10e	-0.11267291
144	0xbca9bd00	-0.020720005
145	0x3b2c768e	0.0026315781
146	0xbd288de5	-0.041150946
147	0x3dd1ecda	0.10250254
148	0xbd21a3b4	-0.03946276
149	0x3d01e8bf	0.031716105
150	0x3da8ebc5	0.082480945
151	0x3d9d2b4b	0.07674273
152	0xbcfd8691	-0.030947955
153	0x3db9dfc2	0.090758815
154	0x3d10117c	0.035172924
155	0xbd541649	-0.051779065
156	0xbd5b8558	-0.053593963
157	0xbdaea4af	-0.08527505
158	0xbccf3734	-0.025294878
159	0xbd7ca701	-0.061682705
160	0x3dc0619e	0.09393619
161	0xbdfa97d4	-0.1223599
162	0xbd3650cb	-0.044510644
163	0xbcaff937	-0.02148114
164	0x3d6b6df4	0.057477906
165	0xbcac25f3	-0.02101419
166	0xbc49c03e	-0.0123139005
167	0xbd91e623	-0.07123973
168	0x3d8c4d5e	0.06850694
169	0x3dbcf41c	0.09226248
170	0xbde9a1c6	-0.11407809
171	0xbc8a7d5b	-0.016905477
172	0xbd77e7b2	-0.060523696
173	0x3c3d5fd0	0.011558488
174	0x3d1c3bdc	0.038143024
175	0xbce76711	-0.028247388
176	0xbc955207	-0.01822759
177	0xbca8118b	-0.020516178
178	0x3e1edd89	0.15514196
179	0xbdb229eb	-0.086994015
180	0xbd83b1e2	-0.06430413
181	0xbd3d5bdf	-0.046230193
182	0xbab5ecf7	-0.0013879825
183	0xbd426bfb	-0.04746626
184	0xbd063ab9	-0.032770846
185	0xbda3ef2f	-0.08004605
186	0x3c6d6b72	0.014490949
187	0x3d20ff16	0.03930577
188	0xbceb35d2	-0.028712187
189	0x3d29361b	0.041311365
190	0x3d66f78d	0.056388427
191	0x3d093e02	0.0335064
192	0x3dcb6cde	0.09932874
193	0x3e010f10	0.12603402
194	0x3cc1e298	0.023667619
195	0x3d92a8d3	0.07161107
196	0x3c8b5048	0.017006055
197	0x3c21f1a9	0.009884276
198	0x3dad86ef	0.08473002
199	0xbd830334	-0.06397095
200	0xbdae1810	-0.08500683
201	0xbcb9b4f2	-0.02266929
202	0xbd92b5f4	-0.07163611
203	0xbb8e5412	-0.004343518
204	0xbcac0cc7	-0.021002186
205	0x3d08eb71	0.03342766
206	0xbb8cf7e3	-0.0043020113
207	0x3d41b6f9	0.047293637
208	0xbd4c045d	-0.04980885
209	0xbdb5c240	-0.08874941
210	0xbc3c5a24	-0.011496101
211	0xbe317b7b	-0.1733226
212	0xbe15d84b	-0.1463329
213	0x3ccf92ba	0.02533852
214	0x3ca2a6ff	0.01985502
215	0xbe4dfc8e	-0.20115873
216	0x3bdf6233	0.006817126
217	0xbc18e7a5	-0.009332572
218	0x3c14f9a1	0.009092719
219	0xbd1d7b50	-0.038447678
220	0x3d2b12e0	0.041766047
221	0x3e6256a9	0.2210337
222	0xbc9ad77e	-0.018901583
223	0xbc020e07	-0.007937915
224	0x3d6423b9	0.05569813
225	0x3d33dce0	0.043911815
226	0x3d681bf6	0.05666729
227	0x3e5df817	0.2167667
228	0x3e319cd3	0.1734498
229	0x3cc6f27b	0.024285546
230	0x3cea2876	0.028583746
231	0xbe40ef89	-0.18841375
232	0xbe087f1b	-0.13329737
233	0xbd9f5e94	-0.07781711
234	0x3d96b9f4	0.073596865
235	0xbe4cb7b9	-0.1999196
236	0x3dd770e6	0.105195805
237	0x3d95c66a	0.07313235
238	0x3d8b404f	0.06799375
239	0x3da57368	0.080786526
240	0x3cd5e68a	0.026110906
241	0xbc646f88	-0.013942607
242	0xbb8861f9	-0.00416207
243	0x3c167d04	0.0091850795
244	0xbcbba29c	-0.022904687
245	0xbd78514c	-0.060624406
246	0x3cc4e506	0.024034988
247	0x3d92087c	0.071305245
248	0xbdb99ead	-0.09063468
249	0xbda8a7e6	-0.08235149
250	0xbe5e1c0d	-0.21690388
251	0xbe148b6f	-0.14506315
252	0x3dfbabe2	0.122886434
253	0x3d2ee432	0.042698093
254	0xbc5e8cc3	-0.013583365
255	0x3d2d10c6	0.042252325

down2.2.bias f4 [20]
0	0x3d8cc248	0.06872994
1	0xbc9f994d	-0.01948228
2	0xbc85d4b3	-0.016336774
3	0xbde7d6bf	-0.113202564
4	0x3dc41565	0.09574393
5	0x3d04c31c	0.032412633
6	0xbc111eff	-0.008857488
7	0x3d083eff	0.033263203
8	0xbccdc592	-0.025118623
9	0x3c8a8c7e	0.016912695
10	0x3d2747cd	0.04083996
11	0x3cbd193a	0.023083318
12	0xbbc41237	-0.0059836167
13	0x3d9ba92b	0.076006256
14	0x3db689d0	0.089130044
15	0x3d05b1ea	0.032640375
16	0xbcc1fae9	-0.023679214
17	0xbaf65c1e	-0.0018795764
18	0x3dac77e7	0.08421307
19	0xbd33990c	-0.04384713

up1.1.weight f4 [20, 20, 1, 1]
0	0x3e27fa9c	0.16404194
1	0xbcc8c08e	-0.02450588
2	0xbe81235d	-0.25222293
3	0xbdbc821d	-0.09204505
4	0xbe022336	-0.12708744
5	0x3dd36a28	0.10322982
6	0xbe0ea096	-0.13928446
7	0x3da441f5	0.08020393
8	0x3dc63ef2	0.096799746
9	0xbdf6d644	-0.12052587
10	0x3e1b6798	0.15176237
11	0xbbdbae7b	-0.0067041493
12	0xbdccce0e	-0.10000239
13	0x3e336219	0.1751789
14	0xbe8db913	-0.27680263
15	0xbf17ff8d	-0.59374315
16	0x3e4264ed	0.18983813
17	0xbdd27bde	-0.10277532
18	0xbe44110c	-0.19147128
19	0x3edd40f2	0.43213612
20	0xbdc9a57a	-0.09846015
21	0xbe518c6e	-0.20463726
22	0x3dcb7688	0.099347174
23	0x3c16658d	0.009179485
24	0x3dccc3ee	0.09998308
25	0x3e4d32e9	0.20038952
26	0x3daf90d1	0.085725434
27	0xbd37cf15	-0.044875223
28	0xbe48b32f	-0.19599603
29	0xbe6be137	-0.23035131
30	0x3de52168	0.11188012
31	0x3d2c1785	0.042014617
32	0xbd190132	-0.037354656
33	0xbe73dc0a	-0.23814407
34	0xbe61147f	-0.21980475
35	0x3e1411fe	0.14459988
36	0x3df8cfa5	0.1214898
37	0x3e0d0956	0.13773093
38	0x3d1ef8ca	0.038811482
39	0x3d4171ad	0.04722755
40	0xbb201a0f	-0.0024429595
41	0xbe07dda8	-0.13268149
42	0xbdc6aaa5	-0.097005166
43	0xbe41e537	-0.18935095
44	0xbed0503a	-0.40686208
45	0x3dcc07c1	0.099624164
46	0x3e5cf3dd	0.21577401
47	0x3d9b2cba	0.0757689
48	0xbcc418b6	-0.023937564
49	0x3ddbb708	0.1072827
50	0x3e6ace56	0.22930273
51	0x3e8ea9f8	0.2786405
52	0x3e7054f2	0.23469904
53	0xbe53325e	-0.20624682
54	0x3be76a5b	0.007062239
55	0xbe35ee3c	-0.1776666
56	0x3e1dd0a2	0.15411618
57	0xbe04560b	-0.12923448
58	0x3e1c6f57	0.15276848
59	0x3e1ac228	0.15113127
60	0x3e124652	0.14284638
61	0x3ec77f1c	0.38964164
62	0x3d4f76d5	0.050650436
63	0xbd5d9bbc	-0.054103598
64	0x3e02da69	0.1277863
65	0x3d18a7ac	0.03726928
66	0x3ead8574	0.3389088
67	0x3da354db	0.07975169
68	0x3e3bfbc1	0.18357755
69	0xbe20cd11	-0.15703227
70	0x3ca93fea	0.02066036
71	0x3e7edbc5	0.24888523
72	0x3dd1756a	0.10227473
73	0x3dc35f82	0.09539701
74	0x3e55240f	0.20814537
75	0xbd685fb1	-0.056731883
76	0xbe20fcea	-0.15721479
77	0x3df929ca	0.12166174
78	0x3d913eed	0.0709208
79	0xbdc4e7f9	-0.09614558
80	0x3e9b5200	0.30336
81	0x3d82d2d8	0.063878715
82	0xbe7855fc	-0.2425155
83	0x3db81a04	0.08989337
84	0xbce20642	-0.027590875
85	0xbeb3bd4f	-0.35105368
86	0x3de0d7e6	0.10978679
87	0xbcca2f19	-0.024680661
88	0x3e68b5e8	0.22725642
89	0x3e84c740	0.25933266
90	0xbdb054c9	-0.086099215
91	0x3e79d8f0	0.24399161
92	0x3e255217	0.16144596
93	0x3daef7e7	0.08543377
94	0x3e162979	0.14664258
95	0xbe86b55b	-0.26310238
96	0x3cccb5fc	0.02498912
97	0xbd72bf03	-0.059264194
98	0xbe71d6ea	-0.2361714
99	0x3e8f3cfe	0.2797622
100	0x3e2f6438	0.17128074
101	0x3e5c453d	0.21510787
102	0x3d84c36e	0.06482588
103	0x3e0634d0	0.13106084
104	0xbda9fd34	-0.08300248
105	0xbc952e0e	-0.018210437
106	0xbe242183	-0.16028409
107	0x3e2bcca4	0.16777283
108	0x3cdc1483	0.02686525
109	0xbda613eb	-0.08109268
110	0xbe608fe5	-0.21929891
111	0xbe541f4d	-0.20715065
112	0xbe5fba21	-0.21848346
113	0x3ca66f4a	0.020316739
114	0x3e34a54e	0.17641184
115	0xbe59f6a7	-0.21285497
116	0x3e426695	0.18984444
117	0x3d261a51	0.04055244
118	0xbdd6c760	-0.104872465
119	0x3e29508d	0.16534634
120	0xbe8be5ef	-0.27323863
121	0x3da39276	0.079869196
122	0x3dba94cd	0.09110413
123	0x3d240648	0.040045053
124	0xbe6f8f81	-0.23394586
125	0x3c4d1b3b	0.012518699
126	0xbe69e629	-0.22841705
127	0x3e3fb60a	0.18721786
128	0x3da7d2eb	0.08194526
129	0x3dcd2287	0.10016351
130	0x3d89f9c2	0.06737091
131	0x3e62ef6a	0.22161642
132	0xbe8847f9	-0.2661741
133	0x3e4a6a45	0.19767101
134	0xbe09b389	-0.13447393
135	0xbdf5ba52	-0.119984284
136	0x3d9454c6	0.07242732
137	0xbd54deee	-0.051970415
138	0xbd5b3c6b	-0.053524416
139	0x3d93514d	0.07193241
140	0xbe7f860d	-0.2495348
141	0xbebdbec8	-0.37059617
142	0x3c393ed5	0.011306484
143	0x3e16860b	0.14699571
144	0x3e123410	0.14277673
145	0x3e96ebc4	0.2947675
146	0xbe87ec00	-0.2654724
147	0x3dea04b5	0.11426679
148	0x3e79a046	0.24377546
149	0x3bcdc445	0.0062795007
150	0xbde99c12	-0.11406721
151	0x3bf9df09	0.007625465
152	0xbdaa3cda	-0.08312388
153	0xbde31396	-0.1108772
154	0xbcc12692	-0.023577962
155	0xbd52f9ea	-0.051507868
156	0x3e8e5a99	0.27803496
157	0xbe95c3b4	-0.29250872
158	0x3e4cbd51	0.19994093
159	0x3e37aafb	0.17936318
160	0xbe6641ed	-0.22486086
161	0xbd1b7c84	-0.037960544
162	0x3e76219d	0.2403626
163	0x3e667798	0.22506559
164	0x3dfc92b1	0.12332667
165	0x3d9a033d	0.07520149
166	0xbea67dca	-0.32517844
167	0x3e14abaf	0.14518617
168	0x3e74d5ef	0.23909734
169	0xbd9cacc9	-0.07650144
170	0x3e2d8798	0.16946256
171	0xbd931b1b	-0.07182904
172	0xbe8c3c20	-0.27389622
173	0x3d267ec5	0.04064824
174	0x3cc1fac1	0.02367914
175	0xbe3f1ede	-0.18664119
176	0xbdad1dc2	-0.084529415
177	0xbe96f283	-0.29481897
178	0x3e82c261	0.25538924
179	0x3ca553b6	0.020181518
180	0xbe664081	-0.22485544
181	0xbe1e8d2a	-0.15483537
182	0x3d76555e	0.060140006
183	0xbd88a6dc	-0.06672451
184	0x3e1519a4	0.14560562
185	0xbdf09925	-0.1174796
186	0xbe241ead	-0.16027327
187	0x3e77e974	0.24210149
188	0xbde327e6	-0.110915944
189	0x3e905002	0.2818604
190	0x3de2c222	0.11072184
191	0x3e3c5db2	0.18395117
192	0xbe60e6c0	-0.21963024
193	0x3e076d53	0.13225298
194	0x3e15524a	0.14582172
195	0xbd48c635	-0.04901715
196	0x3eb814d2	0.35953385
197	0x3dc3da42	0.09563114
198	0xbc84b033	-0.0161973
199	0x3e12ea2f	0.14347146
200	0xbeb8ddc1	-0.36106685
201	0x3e23852f	0.15968774
202	0x3e7697ca	0.2408134
203	0xbd1aa718	-0.03775701
204	0xbe4cb644	-0.19991404
205	0x3d2d5fbd	0.04232763
206	0xbe0c1a49	-0.13681902
207	0xbe1b5003	-0.15167241
208	0x3e519169	0.20465626
209	0x3e5561a2	0.20838025
210	0x3e81368c	0.25236928
211	0x3dff0d4c	0.12453708
212	0xbcc00760	-0.023441017
213	0x3d9f697f	0.07783794
214	0x3c1b1088	0.009464391
215	0x3e22bc40	0.15892124
216	0x3df1114c	0.11770877
217	0x3e8f2dc4	0.27964604
218	0x3dd0bed9	0.10192651
219	0x3d629afa	0.05532358
220	0xbd9e4e1c	-0.07729742
221	0xbe0d7829	-0.13815369
222	0xbe563240	-0.20917606
223	0xbdacd70d	-0.08439455
224	0xbe859a8b	-0.2609447
225	0x3e290650	0.16506314
226	0xbe32d5ab	-0.1746432
227	0x3e2b4acd	0.16727753
228	0x3da4e828	0.08052093
229	0x3e2659fe	0.16245267
230	0x3e635091	0.22198702
231	0xbe007548	-0.12544739
232	0x3e5c5fec	0.21520966
233	0x3e34ddbd	0.17662711
234	0xbcba6a8c	-0.022755884
235	0xbc975ee0	-0.018477857
236	0x3e864153	0.26221713
237	0x3e531879	0.20614804
238	0xbe24f0b5	-0.16107447
239	0x3c8cf247	0.01720537
240	0x3ddac271	0.10681618
241	0xbe20b1d7	-0.1569284
242	0x3e1f4e1b	0.15557139
243	0x3e050195	0.12988885
244	0xbe543585	-0.20723541
245	0xbd5de4e1	-0.054173354
246	0xbe37b381	-0.17939569
247	0xbe61dd8f	-0.22057174
248	0x3df20a5d	0.11818383
249	0x3d31900e	0.043350272
250	0xbe583b4b	-0.21116368
251	0x3e4187ca	0.18899456
252	0xbe1983a4	-0.14991623
253	0xbe7aa55e	-0.24477145
254	0x3d605300	0.054766655
255	0x3e0941c3	0.13403992

up1.1.bias f4 [20]
0	0x3cbc986c	0.0230219
1	0x3a9582b6	0.0011406753
2	0xbe5f5567	-0.21809922
3	0xbdd748e1	-0.105119474
4	0xbe4dca9d	-0.20096822
5	0xbe62b465	-0.22139128
6	0x3e0c4e85	0.13701828
7	0x3e4b468c	0.1985113
8	0x3db27706	0.08714108
9	0x3dc8ad7c	0.097987145
10	0x3d802afa	0.06258197
11	0x3e1cb8ce	0.15304872
12	0x3d5d4fe3	0.054031264
13	0x3cb34239	0.021882163
14	0xbd6ba724	-0.057532445
15	0xbe68ae91	-0.22722842
16	0x3d15e55c	0.036595687
17	0xbcc88985	-0.024479637
18	0x3e0aa1ac	0.13538235
19	0x3cd9bb84	0.026578672

up1.3.weight f4 [12, 20, 3, 3]
0	0xbdb2dcc8	-0.08733517
1	0xbd7f9a6a	-0.06240312
2	0xbdfb0715	-0.1225721
3	0xbdb5f672	-0.08884896
4	0x3c7f3e65	0.015578841
5	0x3dd70d52	0.105005875
6	0x3e2ce214	0.16883117
7	0x3e78b5f7	0.24288164
8	0x3e96f0a4	0.2948047
9	0x3cd05d0f	0.025434999
10	0x3c4bce29	0.012439289
11	0xbc0fbda4	-0.008773241
12	0x3d312b86	0.043254398
13	0x3ce9b234	0.028527357
14	0xbd668f23	-0.05628885
15	0xbd54619b	-0.051850896
16	0xbd5ea87a	-0.05435989
17	0x3d664813	0.05622108
18	0x3d6a60fa	0.05722139
19	0x3c2da742	0.010598959
20	0x3e30ecbe	0.1727781
21	0x3cc37f34	0.023864366
22	0x3e2c0061	0.1679702
23	0x3e89421b	0.26808247
24	0x3d80dd1b	0.062921725
25	0x3e3bf713	0.1835597
26	0x3ea4410d	0.3208088
27	0x3bcf8a18	0.0063336007
28	0x3c65cb66	0.014025545
29	0xbd9c362a	-0.076275185
30	0x3dcc9dbf	0.09991025
31	0x3d648968	0.055795103
32	0x3d798ddb	0.0609263
33	0xbca567d6	-0.020191114
34	0xbd48ea37	-0.04905149
35	0xbd52a8a9	-0.051430378
36	0xbc58389d	-0.013197091
37	0x3d456a34	0.048196986
38	0xbcf69f9b	-0.030105403
39	0x3e1ca6b4	0.15297967
40	0x3e0b6298	0.1361183
41	0xbd33a2c9	-0.043856416
42	0x3e3340c7	0.1750518
43	0x3de96e2f	0.11397969
44	0xbd4a5d09	-0.04940513
45	0x3d97ce95	0.07412449
46	0x3caaffa2	0.020873848
47	0xbb9c67ee	-0.0047731316
48	0x3d218e3d	0.03944229
49	0x3d5afc1b	0.053463083
50	0xbce9c68e	-0.028537061
51	0x3cc32420	0.023820937
52	0xbbb27bbd	-0.0054468797
53	0xbc805083	-0.015663391
54	0xbd4386c6	-0.04773595
55	0x3d873a85	0.066029586
56	0x3df89f94	0.12139812
57	0x3d2277a6	0.039664887
58	0xbc24e0cc	-0.010063361
59	0x3da59abf	0.08086156
60	0xbda40521	-0.08008791
61	0x3c863662	0.016383354
62	0x3c98bc46	0.018644463
63	0x3a950d29	0.001137172
64	0xbdaf0126	-0.08545141
65	0x3d9eb2e3	0.07748964
66	0xbda33c6e	-0.079705104
67	0x3daf710f	0.08566486
68	0x3e3cf427	0.18452512
69	0xbc3eba8c	-0.011641156
70	0xbd1cb8ec	-0.038262293
71	0x3dce66b6	0.10078184
72	0xbd9cc716	-0.0765516
73	0xbd0ba485	-0.034092445
74	0xbd53dc51	-0.051723782
75	0x3cf7c4ab	0.030245146
76	0x3da8f666	0.08250122
77	0x3d9669a2	0.073443666
78	0xbdf20121	-0.118166216
79	0xbc3fbb59	-0.011702382
80	0x3bdf8255	0.0068209567
81	0x3d1cd6fc	0.038290963
82	0xbb515269	-0.003193999
83	0x3dbf6bd1	0.09346736
84	0xbd4ef842	-0.050529726
85	0x3b3236d4	0.0027193325
86	0x3dd1f91e	0.102525935
87	0xbd8f102a	-0.06985505
88	0xbccf0f14	-0.025275744
89	0xbce2822a	-0.027649958
90	0xbc308d3b	-0.0107758595
91	0x3d48dd35	0.049039084
92	0x3e00e31a	0.12586632
93	0x3daa7367	0.083227925
94	0x3dcfb5eb	0.1014212
95	0x3df66bea	0.12032302
96	0xbdacf01b	-0.08444234
97	0xbbf35922	-0.007426397
98	0xbd3a35b4	-0.04546137
99	0xbd798aea	-0.060923494
100	0x3ca4bc8e	0.020109441
101	0x3da5f497	0.081032924
102	0x3d197825	0.037468094
103	0x3e09b87d	0.13449283
104	0x3da68caa	0.08132298
105	0x3c99cb77	0.018773777
106	0x3dc52b79	0.096274324
107	0xbd1e539a	-0.038653947
108	0xbcf972ad	-0.03045019
109	0x3d876f08	0.066129744
110	0xbd308900	-0.043099403
111	0x3d5517d1	0.052024666
112	0x3d672540	0.05643201
113	0x3c5f9fae	0.01364891
114	0xbbec40ce	-0.0072098738
115	0xbd955baa	-0.07292874
116	0xbd92c04c	-0.07165584
117	0xbd962496	-0.07331197
118	0xbdd36582	-0.103220955
119	0x3cbe92be	0.023263332
120	0xbd901e49	-0.070370264
121	0x3ce33b24	0.027738161
122	0x3dd5d69a	0.104413226
123	0xbd4ced1d	-0.050030816
124	0xbb93b2a0	-0.0045073777
125	0x3db6e059	0.0892951
126	0x3d80917c	0.06277749
127	0xbd49aad0	-0.049235165
128	0x3cdab7b4	0.026698925
129	0x3c81a47e	0.015825506
130	0x3cbe6934	0.023243524
131	0x3d9e7347	0.07736831
132	0xbdc2e461	-0.09516216
133	0xbcdc1cbd	-0.026869172
134	0xbd02ed9f	-0.031964894
135	0x3d594c78	0.053051442
136	0xbd6e3f27	-0.058165696
137	0xbc01c08c	-0.007919442
138	0x3e023086	0.12713823
139	0x3dea8e8d	0.11452971
140	0xbaa6574e	-0.0012690814
141	0x3a3a2db2	0.0007102146
142	0x3e05d78f	0.1307051
143	0x3c1ddfc2	0.009635868
144	0x3d8298c5	0.06376795
145	0x3e054b95	0.13017114
146	0x3e692cbf	0.22770976
147	0x3bb6e437	0.0055814045
148	0x3de346c3	0.11097481
149	0x3e35c60a	0.17751327
150	0x3b428b96	0.002968525
151	0x3e0947a8	0.13406241
152	0x3d1d14a6	0.03834977
153	0x3b2eea9b	0.0026690129
154	0xbd1c856f	-0.03821319
155	0x3c61c259	0.013779246
156	0xbd4eda45	-0.050501127
157	0xbcafb8f9	-0.021450507
158	0xbd3518bb	-0.044213038
159	0x3d596436	0.053074084
160	0xbc673e35	-0.014113952
161	0xbc6b55ef	-0.01436375
162	0x3b29c612	0.0025905413
163	0x3c957318	0.018243358
164	0x3da913b9	0.08255715
165	0xbcf2db4b	-0.029645583
166	0x3ddec87d	0.10878084
167	0x3c334968	0.010942794
168	0xbd04dead	-0.032438923
169	0x3c6c24cd	0.014413071
170	0xbc2a0181	-0.010376335
171	0xbd72d8ae	-0.059288673
172	0x3da67b44	0.0812898
173	0xbd2156b8	-0.039389342
174	0xbd5d6ed0	-0.054060757
175	0x3d36d302	0.044634826
176	0x3dede3e1	0.1161573
177	0xbd74a5a4	-0.05972828
178	0x3d0bc8be	0.03412699
179	0x3d11bd13	0.035580706
180	0x3e9ef425	0.31045642
181	0x3e8f8047	0.28027555
182	0x3e1d7053	0.1537488
183	0x3d9ebef7	0.077512674
184	0x3e04ab0a	0.12955871
185	0xbc0570a4	-0.008144531
186	0xbf081e07	-0.5317082
187	0xbe98101e	-0.29699796
188	0xbe744a60	-0.23856497
189	0x3c6df7ab	0.014524381
190	0xbda400f9	-0.08007998
191	0xbcadd227	-0.021218373
192	0xbdbe43eb	-0.09290298
193	0x3d15cfc5	0.036575098
194	0x3d008243	0.031374227
195	0x3d2e4abc	0.04255174
196	0x3cb6e60a	0.022326488
197	0xbba7d94e	-0.0051223403
198	0x3d47f188	0.048814327
199	0x3d6b9f56	0.057525
200	0xbdaa441a	-0.083137706
201	0xbdc68110	-0.096925855
202	0xbe1f50f4	-0.15558225
203	0xbe6b2212	-0.22962216
204	0xbe6069ec	-0.21915406
205	0xbdf2b5a4	-0.118510514
206	0xbe452a76	-0.19254479
207	0xbddd9e7e	-0.108212456
208	0xbde7030c	-0.11279878
209	0xbd1dac62	-0.038494475
210	0xbe00d25e	-0.12580249
211	0xbd526f8a	-0.051375903
212	0xbd9557ea	-0.07292159
213	0xbc06829c	-0.008209851
214	0x3dcea285	0.10089592
215	0xbd2980c9	-0.041382585
216	0x3de9680c	0.113967985
217	0x3d2eed73	0.042706918
218	0x3d99159a	0.07474823
219	0xbe211303	-0.15729909
220	0xbe079834	-0.13241655
221	0xbc922dca	-0.0178441
222	0xbe3c553c	-0.1839189
223	0xbe558bce	-0.20854113
224	0x3e0a8e72	0.13530901
225	0x3d73168c	0.059347674
226	0xbcf090c5	-0.029365906
227	0xbd8723f7	-0.065986566
228	0x3d87d77f	0.066328995
229	0xbd7d58b1	-0.06185216
230	0xbb0e7062	-0.0021734466
231	0xbbb5848d	-0.005539483
232	0xbc4bfd94	-0.012450594
233	0xbd53ebe6	-0.051738642
234	0x3d88c375	0.066779055
235	0x3dc55055	0.09634463
236	0xbd1548e4	-0.036446467
237	0x3dabf211	0.0839578
238	0x3d19b932	0.03753013
239	0x3c94d661	0.01816863
240	0xbd94e246	-0.07269721
241	0xbd9abb6b	-0.075552784
242	0xbdd871fe	-0.10568617
243	0x3df3769e	0.11887859
244	0xbd9ae031	-0.07562292
245	0xbd73897a	-0.05945728
246	0x3e2d06bb	0.16897099
247	0x3e09cca5	0.13456972
248	0x3d50878c	0.050910518
249	0x3dc2977e	0.09501551
250	0x3dffa76b	0.12483104
251	0xbe149c68	-0.14512789
252	0xbcba25de	-0.022723135
253	0xbd43e3b6	-0.047824584
254	0x3c97c2ab	0.018525442
255	0x3ddef5ee	0.10886751

up1.3.bias f4 [12]
0	0x3d41013f	0.04712033
1	0x3daaf71c	0.083479136
2	0xbb3303ee	-0.0027315575
3	0x3d53d923	0.05172075
4	0xbd1c81e0	-0.038209796
5	0xbaa37eb5	-0.0012473675
6	0xbc47dd92	-0.012198823
7	0x3d6ce1a7	0.057832386
8	0x3cb310e2	0.021858636
9	0xbb24d313	-0.0025150224
10	0x3c07213c	0.00824767
11	0x3d8842a0	0.06653333

up2.1.weight f4 [24, 24, 1, 1]
0	0x3daf1904	0.08549693
1	0xbe4068e3	-0.18790011
2	0x3d1b1253	0.037859272
3	0x3e096787	0.13418399
4	0x3e3dc537	0.18532263
5	0xbdd34fcc	-0.103179544
6	0x3de43645	0.111431636
7	0xbdb43ba9	-0.08800442
8	0xbc12c974	-0.008959163
9	0x3dc82d48	0.09774262
10	0x3cece7a0	0.028919041
11	0x3dfd03de	0.12354253
12	0x3e53846a	0.2065598
13	0x3e5b01c5	0.21387394
14	0xbe7bffe3	-0.24609332
15	0x3cdd5852	0.027019653
16	0xbd85d677	-0.065350465
17	0x3e1765ca	0.14784923
18	0x3e2f824c	0.17139548
19	0x3e5de9dd	0.21671243
20	0x3ba1da40	0.0049393475
21	0x3d5e54eb	0.054280203
22	0x3e9fc529	0.3120511
23	0x3e49a20d	0.19690724
24	0xbd61480d	-0.055000354
25	0xbd87f932	-0.06639327
26	0x3d5e0c64	0.054211035
27	0xbcaf0c10	-0.021368057
28	0xbe3d14a3	-0.18464904
29	0xbd0e414e	-0.03473025
30	0xbdfade7a	-0.12249465
31	0x3de0a7b0	0.10969484
32	0xbdff55d3	-0.124675415
33	0xbe057a7f	-0.1303501
34	0xbdb66559	-0.08906049
35	0x3c5623c9	0.013070055
36	0xbd7c8907	-0.061654117
37	0x3cb39b04	0.021924503
38	0x3da6371f	0.08115982
39	0xbdebe90d	-0.1151906
40	0xbdcdc373	-0.100470446
41	0x3dbb1d82	0.091364875
42	0x3c414db7	0.011798314
43	0xbd460016	-0.048339926
44	0xbdd57066	-0.10421829
45	0x3e4ffc56	0.20311102
46	0xbe3eb990	-0.18625474
47	0xbdddd0fc	-0.10830876
48	0xbe3aa30b	-0.18226258
49	0x3dd9ebed	0.106407024
50	0xbda3e2e9	-0.08002264
51	0xbbe6844b	-0.0070348135
52	0xbd244e6b	-0.040113848
53	0xbd7add04	-0.061245933
54	0x3e9141d3	0.28370532
55	0xbcf0a1a6	-0.029373955
56	0xbdf1cbd8	-0.11806458
57	0xbe56c359	-0.20972957
58	0x3eeba014	0.46020567
59	0x3c9e917a	0.019356478
60	0x3e77c430	0.24195933
61	0xbddea047	-0.10870414
62	0xbdfec7a1	-0.1244042
63	0x3e715157	0.23566185
64	0xbe0cefde	-0.13763377
65	0x3e1308cd	0.14358826
66	0x3db30fd4	0.08743253
67	0x3e55292b	0.20816486
68	0x3e68811e	0.22705504
69	0xbd8fa8c9	-0.07014615
70	0x3e8e33c3	0.27773866
71	0xbe209b4f	-0.15684246
72	0xbdfd282b	-0.12361177
73	0xbe62c16b	-0.22144096
74	0x3e6e189e	0.23251578
75	0xbcdd5579	-0.027018296
76	0x3e1a727d	0.15082736
77	0x3d0213e0	0.031757236
78	0x3dbc6b55	0.092001595
79	0xbd12e57d	-0.03586339
80	0x3db50211	0.08838285
81	0xbdaecacd	-0.08534775
82	0x3e162cf2	0.14665583
83	0x3e636ec0	0.22210217
84	0x3d843276	0.06454937
85	0xbbaa2e88	-0.0051935352
86	0xbe60bc89	-0.2194692
87	0x3dad0c16	0.08449571
88	0x3e1f2114	0.15539962
89	0x3e15bda4	0.14623123
90	0xbd544d7a	-0.0518317
91	0x3c6aa5ac	0.014321726
92	0xbcfd02e3	-0.030885166
93	0x3e2a005c	0.166017
94	0x3e51ac99	0.20475997
95	0xbe1f6c31	-0.15568615
96	0x3cdd6abb	0.027028432
97	0x3e549f07	0.20763789
98	0xbe6104be	-0.21974465
99	0xbe2f54d9	-0.1712221
100	0xbdb07ad5	-0.08617178
101	0x3dd629f7	0.10457223
102	0x3d846473	0.06464472
103	0x3ebaa03a	0.36450368
104	0x3c919c59	0.017774748
105	0x3e7856dd	0.24251886
106	0xbe2a868a	-0.16652885
107	0x3e2cd40d	0.16877766
108	0x3d33b566	0.043874167
109	0xbd982621	-0.074291475
110	0x3e2514ea	0.1612126
111	0x3c066b78	0.0082043335
112	0xbe553d03	-0.20824055
113	0xbdb23393	-0.08701243
114	0x3d91c6b4	0.07117978
115	0xbb8048b1	-0.0039149155
116	0x3dad5240	0.084629536
117	0x3e6f77f4	0.23385602
118	0xbe883f6f	-0.26610896
119	0xbdfa6185	-0.122256316
120	0x3e30f57a	0.17281142
121	0x3c6a7c9d	0.014311937
122	0x3d8b6509	0.0680638
123	0x3e046ca4	0.12932068
124	0xbcc9e426	-0.024644922
125	0x3e7972a2	0.24360135
126	0x3e8ec8ff	0.27887723
127	0xbe4247cf	-0.18972705
128	0x3e3bccb9	0.18339814
129	0x3e3a3532	0.18184355
130	0x3eb73486	0.3578226
131	0x3c78f1a0	0.015194327
132	0xbce027fd	-0.027362818
133	0xbc8209f3	-0.015873885
134	0xbdb34a91	-0.08754457
135	0xbc1e569f	-0.009664207
136	0x3d2c3ff8	0.042053193
137	0xbe390c73	-0.18071155
138	0xbcfb8889	-0.030704753
139	0xbe206c95	-0.15666421
140	0x3e71f397	0.23628078
141	0xbd21e515	-0.03952511
142	0x3e82e7ea	0.2556756
143	0x3e05d7cc	0.13070601
144	0xbc9a2a76	-0.018819075
145	0x3c2b9e3b	0.010474737
146	0x3c88f820	0.016719878
147	0x3e39a33e	0.18128678
148	0xbdfcbdef	-0.123409145
149	0x3e03e4c6	0.12880239
150	0xbe4bae3e	-0.19890687
151	0xbe0c612b	-0.13708942
152	0x3db5591f	0.08854889
153	0x3e2781f4	0.16358167
154	0xbe254f88	-0.1614362
155	0xbe11b438	-0.14228904
156	0xbd2c4047	-0.042053487
157	0x3e038e23	0.1284719
158	0x3e0751fb	0.13214867
159	0xbccbd86b	-0.02488347
160	0x3e2ffbbb	0.17185871
161	0x3dbc44ea	0.09192832
162	0x3e02619a	0.12732545
163	0x3dcbc1f4	0.09949103
164	0xbe226ae6	-0.15861091
165	0x3df33359	0.11875028
166	0x3e6c3df0	0.23070502
167	0xbe0c9157	-0.13727318
168	0x3dd00032	0.10156287
169	0x3dceab86	0.10091309
170	0x3e5b70e2	0.2142978
171	0xbd9ccf78	-0.07656759
172	0x3c9416ef	0.018077342
173	0xbc8f4506	-0.017488968
174	0x3e1a6c9f	0.15080498
175	0x3c1c8eaf	0.009555503
176	0xbd908188	-0.07055956
177	0xbc2117f6	-0.009832373
178	0x3e9169c2	0.28401
179	0x3e58309b	0.21112292
180	0xbe02a522	-0.12758306
181	0xbd969512	-0.07352652
182	0xbbdbdb93	-0.006709525
183	0xb9caab0f	-0.0003865589
184	0x3ce40693	0.027835166
185	0xbe14f849	-0.14547838
186	0xbd440980	-0.047860622
187	0x3dd8a0b2	0.10577525
188	0x3e7ab248	0.24482071
189	0xbe02df4b	-0.12780492
190	0x3e3b3b96	0.18284449
191	0x3bdb561e	0.0066936156
192	0xbdd3ea0b	-0.103473745
193	0xbde79029	-0.11306793
194	0x3e14829b	0.14502947
195	0xbca11cb0	-0.019667
196	0x3e39cd24	0.18144661
197	0x3d86228f	0.0654956
198	0x3e869084	0.26282132
199	0x3e4ce0e1	0.2000766
200	0xbdbeb8b9	-0.09312577
201	0x3e1f993b	0.15585797
202	0x3f13edf8	0.57784986
203	0x3e22b9cd	0.1589119
204	0x3e0867a4	0.13320786
205	0xbd2bf5de	-0.041982524
206	0xbe005693	-0.12533025
207	0x3d7cc4ad	0.061711002
208	0xbe16ad25	-0.14714487
209	0xbdfd4087	-0.12365823
210	0xbe312333	-0.17298584
211	0xbe16b22f	-0.14716409
212	0x3e108b2d	0.14115591
213	0x3e1de62e	0.15419838
214	0x3ecb34cd	0.3968872
215	0x3e198d0f	0.14995216
216	0x3d900783	0.07032683
217	0x3d99079e	0.07472156
218	0xbd82f873	-0.06395044
219	0x3e006c8e	0.1254141
220	0x3dd4cc1f	0.103904955
221	0xbc9baaa6	-0.01900227
222	0x3dc9e30a	0.098577574
223	0x3e0da48f	0.13832305
224	0xbe028c95	-0.1274894
225	0x3e0d1c6e	0.13780376
226	0x3dd848ea	0.10560782
227	0x3c9d87e7	0.019229842
228	0x3e1649a8	0.14676535
229	0xbe06d283	-0.13166241
230	0x3e8592c0	0.26088524
231	0x3e6daa11	0.23209406
232	0x3d924232	0.07141532
233	0x3da24da2	0.079249635
234	0xbdf7744b	-0.12082728
235	0xbd82d2d6	-0.0638787
236	0x3e475a35	0.19468005
237	0x3e899cf2	0.26877552
238	0x3ea7d05e	0.3277616
239	0x3e267eaa	0.16259256
240	0xbe0c65ca	-0.13710704
241	0x3dac962d	0.08427081
242	0x3d8dfa25	0.06932477
243	0x3d2c2760	0.04202974
244	0xbcd3511a	-0.025795508
245	0xbdbab6fd	-0.091169335
246	0xbe839b2c	-0.25704324
247	0xbe106fda	-0.14105168
248	0x3d160645	0.036627073
249	0x3c4d533c	0.012532052
250	0xbe5b7588	-0.21431553
251	0xbe98c91e	-0.2984094
252	0x3d92d8c3	0.0717025
253	0xbe4c0b55	-0.19926198
254	0x3dd2f702	0.10301019
255	0x3e6854da	0.22688618
