agent_0.onnx (onnx, 49596 bytes, 22 tensors)

initial.0.weight f4 [8, 5, 3, 3]
0.031774398 0.008545471 0.16482756 -0.07995475 -0.06409268 0.1477216 -0.058365464 0.046785984
0.118595 0.033754293 -0.036591835 -0.36007035 0.038338266 0.12108628 -0.16936925 0.016942728
-0.009635863 -0.07416331 0.16366868 0.113152005 -0.17626205 0.023792608 0.043767333 -0.04885099
0.15455346 0.12161026 -0.22899497 -0.009586244 -0.10792244 -0.11365419 0.105873585 0.079235576
0.15898758 0.17006253 -0.20959985 0.10567693 -0.030527217 0.13129245 -0.041684117 -0.021633528
0.1718822 0.18412414 0.015963329 0.11724396 -0.035654537 0.17272976 -0.15592232 -0.05127199
0.022574738 0.16881333 0.030694978 0.14664271 -0.044353615 0.13205558 -0.092394516 -0.13037659
0.10917958 -0.08019649 0.05459564 0.13790056 0.17188017 0.16546832 0.07091776 0.15463111
-0.0022325206 0.24576354 0.17791526 -0.02913426 0.15869506 0.21385185 0.050553206 0.01295829
0.05664209 0.061745435 0.08853461 0.21641563 -0.1718715 0.31227306 0.2103592 0.124220885
-0.051222287 0.28672016 -0.00814408 0.13547687 0.101223074 0.041544 0.18730333 0.17959303
0.09047112 0.15101944 -0.054713756 -0.1976803 0.15793571 -0.05276059 0.18843159 -0.15209855
-0.15499446 -0.09927424 -0.14179544 -0.030397143 0.09955797 0.12427382 0.22342306 -0.109225675
0.0734451 0.0014295481 0.044693287 0.013910055 0.13257414 0.046352137 -0.0138635235 0.10836686
-0.40002882 0.26254287 0.005110047 0.17748 -0.023147926 0.064814255 0.02182355 0.116006754
0.14824384 0.08055149 0.12886295 0.04465618 0.15967277 0.065092534 -0.001375866 0.21152022
0.09225221 0.19264045 0.012868502 0.14846756 -0.0041422937 0.1956275 -0.04575842 0.052539043
0.028285261 0.04722883 -0.1505987 -0.15026094 0.11796106 0.003457068 -0.12380901 0.115051255
0.06584359 0.013665528 -0.051720567 -0.11460354 0.062497277 0.15294331 -0.025329188 0.033874195
0.14617307 0.05396629 0.052534014 0.110368684 0.021220062 0.091872275 0.0054194797 -0.07356618
-0.13182162 0.045783147 0.018738875 -0.03857791 0.0053665563 -0.058519863 -0.024651669 0.036145225
-0.09091225 -0.11956823 0.06551065 -0.10202062 -0.0042686705 0.12377381 -0.029292673 -0.030210054
-0.00600976 -0.23046741 -0.06763616 -0.023983037 -0.17553714 -0.24340212 -0.24523771 -0.060482748
-0.38449416 -0.16525185 -0.032463945 -0.13604271 -0.19925857 0.046530306 -0.033484064 0.09643508
-0.06958715 0.082382515 0.13745706 0.09596267 0.10492709 0.06096774 -0.2463634 -0.20024355
-0.012124434 -0.09057616 0.1066831 0.021400228 -0.09050373 0.09298057 -0.0016548735 -0.037847407
-0.029581033 0.09747147 0.04239647 0.16217177 0.067813456 0.051821128 0.10848533 -0.059376746
-0.01599131 -0.013994288 -0.01147918 0.031673916 0.21086775 0.099526696 0.073385924 -0.0095540285
0.038397644 0.07591157 0.1390182 0.19822966 0.15754028 0.2204519 0.10631542 0.060340717
0.12982321 0.115522146 -0.03818064 -0.024328649 0.08011821 0.020812666 -0.108635075 -0.091316275
0.07335904 -0.08295319 0.107114635 0.12722291 -0.07998544 -0.14959644 -0.23798443 -0.24227674
0.010847124 0.00017876213 -0.08136651 -0.07996558 -0.0013327713 -0.0870528 -0.05566131 -0.045275528
00000000: df25 023d 4e02 0c3c 8ec8 283e 51bf a3bd
00000010: 0643 83bd 5544 173e a010 6fbd a9a2 3f3d
00000020: efe1 f23d f141 0a3d 52e1 15bd 245b b8be
00000030: 9608 1d3d 15fc f73d 226f 2dbe 7acb 8a3c
00000040: bddf 1dbc efe2 97bd c398 273e 3dbc e73d
00000050: 0a7e 34be b7e8 c23c 6045 333d fa17 48bd
00000060: 4343 1e3e cd0e f93d a87d 6abe 9f0f 1dbc
00000070: 7106 ddbd 87c3 e8bd 40d4 d83d 4346 a23d
00000080: a4cd 223e df24 2e3e 58a1 56be 256d d83d
00000090: 3714 fabc 8771 063e f7bc 2abd cc38 b1bc
000000a0: e301 303e 0a8b 3c3e 87c5 823c 9a1d f03d
000000b0: 7e0a 12bd 12e0 303e 1aaa 1fbe 9402 52bd
000000c0: a8ee b83c 67dd 2c3e 0974 fb3c 8229 163e
000000d0: 23ac 35bd 9439 073e 5639 bdbd 7181 05be
000000e0: 8b99 df3d 0f3e a4bd ae9f 5f3d ce35 0d3e
000000f0: 5b01 303e 8770 293e 553d 913d 9e57 1e3e
00000100: 7b4f 12bb 70a9 7b3e 6b2f 363e f9aa eebc
00000110: f580 223e fbfb 5a3e e110 4f3d 024f 543c
00000120: 8901 683d c8e8 7c3d a251 b53d 0f9c 5d3e
00000130: 15ff 2fbe 41e2 9f3e 6768 573e 8567 fe3d
00000140: 76ce 51bd fccc 923e bf6e 05bc 73ba 0a3e
00000150: 0b4e cf3d 0b2a 2a3d 72cc 3f3e 3ce7 373e
00000160: ec48 b93d d7a4 1a3e 881b 60bd b46c 4abe
00000170: e6b9 213e 7d1b 58bd 36f4 403e b9bf 1bbe
00000180: deb6 1ebe 4b50 cbbd d332 11be 6e03 f9bc
00000190: 0de5 cb3d 4683 fe3d 04c9 643e b6b1 dfbd
000001a0: 626a 963d ad5f bb3a 4f10 373d 00e7 633c
000001b0: 84c1 073e bddb 3d3d d523 63bc 72ef dd3d
000001c0: 94d0 ccbe 056c 863e 2e72 a73b 51bd 353e
000001d0: b8a0 bdbc 56bd 843d 4dc7 b23c f394 ed3d
000001e0: 3ccd 173e 2ef8 a43d a6f4 033e 66e9 363d
000001f0: 4281 233e 3c4f 853d 6756 b4ba c298 583e
00000200: baee bc3d 8a43 453e 69d6 523c e107 183e
00000210: 14bc 87bb 9352 483e 2e6d 3bbd 2e33 573d
00000220: 7eb6 e73c 0573 413d 8c36 1abe 01de 19be
00000230: 9195 f13d fa8f 623b 948f fdbd fe9f eb3d
00000240: 01d9 863d 61e5 5f3c f2d8 53bd 43b5 eabd
00000250: 25fd 7f3d 2c9d 1c3e 287f cfbc abbf 0a3d
00000260: 65ae 153e c20b 5d3d e82d 573d fa08 e23d
00000270: b2d5 ad3c 8827 bc3d e495 b13b dea9 96bd
00000280: 3ffc 06be 1c87 3b3d 4582 993c df03 1ebd
00000290: f0d9 af3b 86b2 6fbd 4cf2 c9bc 040d 143d
000002a0: 3430 babd 30e0 f4bd 732a 863d 30f0 d0bd
000002b0: 34e0 8bbb 207d fd3d 30f7 efbc 137b f7bc
000002c0: 85ed c4bb a6ff 6bbe d484 8abd 1378 c4bc
000002d0: 02c0 33be 683e 79be 981f 7bbe c2bc 77bd
000002e0: 6bdc c4be c837 29be eaf8 04bd c84e 0bbe
000002f0: 700a 4cbe 9096 3e3d 9626 09bd c17f c53d
00000300: b583 8ebd 2ab8 a83d 8bc1 0c3e 1488 c43d
00000310: 04e4 d63d 4fb9 793d b046 7cbe a50c 4dbe
00000320: 90a5 46bc fe7f b9bd ab7c da3d 884f af3c
00000330: 055a b9bd 996c be3d 57e8 d8ba e205 1bbd
00000340: ec53 f2bc 1f9f c73d eca7 2d3d 5b10 263e
00000350: c8e1 8a3d 6442 543d 8f2d de3d 0835 73bd
00000360: 3500 83bc 4c48 65bc 2c13 3cbc 82bc 013d
00000370: b7ed 573e a7d4 cb3d 5c4b 963d 8088 1cbc
00000380: d946 1d3d 8677 9b3d c95a 0e3e b7fc 4a3e
00000390: 3d52 213e 25be 613e e6bb d93d d427 773d
000003a0: 60f0 043e e096 ec3d 4e63 1cbd e04c c7bc
000003b0: 0415 a43d 537f aa3c 117c debd 0704 bbbd
000003c0: 443d 963d 5de3 a9bd eb5e db3d b946 023e
000003d0: 68cf a3bd cf2f 19be 31b2 73be 6517 78be
000003e0: 23b8 313c 1872 3b39 7ca3 a6bd fec4 a3bd
000003f0: 62b0 aeba bd48 b2bd 1dfd 63bd d572 39bd

initial.0.bias f4 [8]
-0.06948608 0.14693314 -0.124250874 0.12109072 -0.018289275 -0.042619895 0.024877368 -0.082898155
00000000: b84e 8ebd a475 163e 3e77 febd 69fe f73d
00000010: 64d3 95bc 3392 2ebd 9fcb cb3c 82c6 a9bd

initial.2.weight f4 [8, 8, 1, 1]
0.18219152 -0.03483106 0.38048375 -0.006939986 -0.24409589 -0.32355714 -0.28044015 0.02417923
-0.026628872 0.12270224 -0.19166769 0.22208071 0.08102725 0.23841523 -0.27118444 -0.32678863
-0.62464595 -0.02367203 -0.17714736 0.25795606 0.14247978 -0.09558764 0.1954464 -0.22244765
-0.112756595 0.40945664 0.07665145 -0.09788992 -0.32374826 -0.14090495 -0.21872301 -0.047706097
-0.17328371 0.14968869 0.24282944 0.08591097 0.5820068 0.083456226 0.0062647806 -0.40497664
-0.3980976 -0.14107256 -0.170986 0.34370542 0.07213459 0.27681312 0.27165806 -0.20176484
-0.3167842 0.28288597 0.099544354 0.32917145 -0.19650099 -0.68093705 0.25009254 -0.31052703
-0.0034073563 0.14595231 -0.09074375 0.0370202 -0.14796436 0.091688454 0.06747447 -0.19452056
00000000: 6a90 3a3e 03ab 0ebd c4ce c23e d268 e3bb
00000010: 46f4 79be 48a9 a5be da95 8fbe 8513 c63c
00000020: cb24 dabc 504b fb3d 8944 44be 2069 633e
00000030: 9df1 a53d 1f23 743e b0d8 8abe d750 a7be
00000040: cce8 1fbf d8eb c1bc 1e66 35be d112 843e
00000050: 38e6 113e 74c3 c3bd 1a23 483e 51c9 63be
00000060: eeec e6bd 4da4 d13e 6ffb 9c3d 837a c8bd
00000070: 55c2 a5be 6349 10be edf8 5fbe 7867 43bd
00000080: 4971 31be fe47 193e 48a8 783e 17f2 af3d
00000090: 66fe 143f 19eb aa3d ca48 cd3b 1959 cfbe
000000a0: 73d3 cbbe 5375 10be f416 2fbe 28fa af3e
000000b0: 4dbb 933d 73ba 8d3e c416 8b3e 719b 4ebe
000000c0: 8a31 a2be 6ed6 903e e9dd cb3d 2989 a83e
000000d0: 8e37 49be e451 2ebf 210c 803e 66fd 9ebe
000000e0: f44d 5fbb 8674 153e dcd7 b9bd 7ea2 173d
000000f0: f883 17be 28c7 bb3d 0e30 8a3d 6630 47be

initial.2.bias f4 [8]
-0.07007286 0.17227256 0.11367467 0.2603977 -0.017860344 0.34299102 -0.15907279 0.24034289
00000000: 5c82 8fbd 3868 303e 44ce e83d d952 853e
00000010: db4f 92bc 859c af3e fae3 22be 721c 763e

down1.0.weight f4 [8, 8, 1, 1]
0.400912 0.16169068 -0.40575168 -0.36414683 0.09728057 -0.13811885 0.0895965 0.30060625
-0.13052778 0.30369398 0.3422739 -0.21830207 0.5554234 0.34355786 0.05596593 0.04981973
0.21415514 -0.36845806 0.29253855 0.028887723 -0.12624566 -0.04168213 0.3619476 0.32050553
0.14675696 0.3090238 0.28607035 0.1738501 -0.08272193 -0.20149025 0.7218355 -0.07284843
-0.4012724 -0.124147624 0.2781314 -0.0984193 0.54323304 0.36549366 0.0441783 -0.15011959
-0.10528054 0.091746986 0.15065591 0.1920064 0.336995 0.3258695 0.22239603 0.19675833
0.148323 0.3857117 -0.16989967 -0.23008797 0.33427614 0.34823585 0.09432898 0.059519295
-0.3075488 -0.071558475 0.39863196 -0.36118567 -0.02082295 0.034624893 -0.105536886 0.17927343
00000000: 5644 cd3e 3e92 253e afbe cfbe 7471 babe
00000010: 093b c73d 076f 0dbe 5f7e b73d 10e9 993e
00000020: 13a9 05be c77d 9b3e 863e af3e 948a 5fbe
00000030: 3a30 0e3f d1e6 af3e 883c 653d c60f 4c3d
00000040: 7c4b 5b3e 89a6 bcbe 9dc7 953e f2a5 ec3c
00000050: 8b46 01be e2ba 2abd 3251 b93e 4d19 a43e
00000060: 7547 163e 5e38 9e3e d077 923e c305 323e
00000070: 1e6a a9bd 7653 4ebe 36ca 383f 8f31 95bd
00000080: 9373 cdbe 1c41 febd 3d67 8e3e 0f90 c9bd
00000090: 5211 0b3f fc21 bb3e 4ef4 343d f3b8 19be
000000a0: 539d d7bd d8e5 bb3d 8b45 1a3e 539d 443e
000000b0: 9c8a ac3e 5ed8 a63e c9bb 633e 047b 493e
000000c0: fce1 173e 017c c53e 2efa 2dbe 2e9c 6bbe
000000d0: 3e26 ab3e f84b b23e 8d2f c13d 81ca 733d
000000e0: 0977 9dbe 408d 92bd 7d19 cc3e 54ed b8be
000000f0: e494 aabc d5d2 0d3d b923 d8bd 7493 373e

down1.0.bias f4 [8]
0.11510358 0.38640887 0.19496469 -0.03575286 -0.035203505 -0.1018308 -0.15599652 0.24099539
00000000: 6dbb eb3d 62d7 c53e d3a4 473e 9771 12bd
00000010: 8d31 10bd ab8c d0bd 8dbd 1fbe 7fc7 763e

down1.2.weight f4 [12, 8, 3, 3]
-0.0066436976 -0.066477574 -0.08606503 0.04519138 0.11584442 -0.075143516 0.07381057 0.08918056
-0.028558714 -0.034104705 0.06697909 0.036484588 0.06253626 -0.018526938 0.09542453 0.057386007
-0.042805143 0.088680096 0.11161381 0.11393856 -0.042935636 0.08276077 0.05599909 0.038489543
0.09298526 0.023763686 -0.07725949 -0.1617443 -0.17333718 -0.1887471 -0.19274117 -0.25197253
-0.12429021 0.066772334 -0.20215978 0.092068166 0.060875632 0.025475021 0.06718762 -0.06653976
0.10084665 0.06445942 0.20352119 0.042815197 0.14994696 0.06371616 0.039029013 -0.037483737
-0.0046860846 0.09794277 -0.035981268 -0.09150911 -0.028969778 0.10703286 -0.045180988 0.080356754
0.059302125 0.03430385 0.069587015 -0.066350535 0.30918464 0.09670817 0.039039064 -0.052736755
0.034040675 0.039138753 0.08587748 0.033680674 0.054793082 0.11695995 -0.05810251 -0.03599969
0.039701145 -0.28082186 0.09929151 0.060565367 -0.1253097 -0.11910629 0.09870771 -0.15710028
-0.017410772 -0.10132888 0.07627476 -0.003951857 -0.14115968 -0.10726884 0.09700569 -0.08463988
0.09365315 0.051927444 0.037722893 -0.108056195 -0.11635984 -0.08367762 -0.036371052 -0.03876415
-0.044331145 0.0785551 0.014458433 -0.054021887 0.12970713 -0.0096271755 0.14636582 -0.032132
0.099131465 0.047561884 0.2729549 -0.058021296 0.073796466 -0.026507089 0.178626 -0.041812945
0.034005694 0.043170076 -0.08568132 0.014623032 0.1426804 -0.19182132 -0.09791169 -0.10917102
0.01901936 0.009032291 0.07702961 0.005508704 0.044261646 0.09345338 -0.13368966 -0.00021953991
-0.0404964 -0.13915747 0.05819979 0.15006135 -0.1111669 0.037269387 0.2383698 -0.13571475
-0.14283401 -0.06895884 -0.02118507 0.06455792 -0.004378925 -0.100133635 0.073140725 -0.022386273
0.114908345 0.054677606 0.052766416 -0.020523211 0.21640924 0.1376949 -0.2403793 0.049138438
-0.010788154 -0.05644888 -0.0044727838 0.060908083 -0.09174525 -0.015647234 -0.027969448 -0.08235676
-0.002286508 0.14699794 -0.026825046 0.009578661 -0.032895345 0.0869566 0.07286781 -0.044929978
0.030826576 0.061934922 0.114339784 0.1751464 0.043202966 -0.066373646 0.06096355 -0.1384494
-0.03807125 0.121652804 0.14193772 0.1573005 0.2049271 0.05648349 -0.09960397 0.022049038
0.04283169 0.059571963 0.085418954 0.010631834 0.20747441 0.11010074 -0.012690479 0.10466983
0.077818155 0.06274155 0.13268043 -0.007089223 -0.0436054 -0.01934396 0.12642112 0.13652669
0.0052735247 0.14971872 0.07702091 -0.07956868 0.07152802 0.23508225 0.2259421 0.012131459
0.006429953 0.072352745 -0.0143612875 -0.091810554 -0.034677405 0.1314525 0.074361056 -0.08938724
-0.045909777 -0.0940897 -0.1131614 0.18571852 -0.05221963 0.112566896 -0.11018929 -0.36850294
-0.33064607 0.05884768 -0.06923905 -0.045614667 0.054779224 -0.042132825 0.03438773 0.086697906
-0.051965684 -0.032866072 0.02823976 0.017971728 0.0903335 -0.09915798 -0.10167262 -0.061767027
0.09410101 0.08640348 0.09960734 0.07245667 0.10502913 0.047108967 0.0011825854 0.06801061
0.014321917 -0.042630695 0.006385365 -0.06206543 -0.020567853 -0.06966181 0.06041673 0.107533775
00000000: 60b3 d9bb 6525 88bd dd42 b0bd 991a 393d
00000010: d73f ed3d d8e4 99bd ff29 973d 4ca4 b63d
00000020: f7f3 e9bc 60b1 0bbd 552c 893d dd70 153d
00000030: 0313 803d cec5 97bc f06d c33d 970d 6b3d
00000040: 7254 2fbd e99d b53d c895 e43d 9f58 e93d
00000050: 47dd 2fbd 7b7e a93d 4d5f 653d 36a7 1d3d
00000060: 0e6f be3d 10ac c23c 393a 9ebd 4ca0 25be
00000070: 4d7f 31be eb46 41be f15d 45be 8b02 81be
00000080: de8b febd efbf 883d f902 4fbe 3c8e bc3d
00000090: ba58 793d feb0 d03c aa99 893d ff45 88bd
000000a0: b088 ce3d 4d03 843d dc67 503e fd5e 2f3d
000000b0: b28b 193e 9e7d 823d e3dc 1f3d 8c88 19bd
000000c0: ba8d 99bb 3896 c83d 1861 13bd 2169 bbbd
000000d0: 0752 edbc 0b34 db3d b30f 39bd 1592 a43d
000000e0: c9e6 723d 3282 0c3d a383 8e3d cae2 87bd
000000f0: 734d 9e3e ef0e c63d 6de7 1f3d 7f02 58bd
00000100: 3c6e 0b3d f54f 203d 88e0 af3d bff4 093d
00000110: b66e 603d b388 ef3d e6fc 6dbd 6974 13bd
00000120: ab9d 223d e2c7 8fbe 5959 cb3d 6413 783d
00000130: 3051 00be 00ee f3bd 4527 ca3d e5de 20be
00000140: 09a1 8ebc 8485 cfbd f135 9c3d 947e 81bb
00000150: 2a8c 10be c4af dbbd ebaa c63d ac57 adbd
00000160: 39cd bf3d dfb1 543d 5283 1a3d 914c ddbd
00000170: 114e eebd 2c5f abbd d0f9 14bd 28c7 1ebd
00000180: 9394 35bd 7fe1 a03d 10e3 6c3c 0e46 5dbd
00000190: f2d1 043e 4dbb 1dbc ece0 153e d89c 03bd
000001a0: 7005 cb3d 40d0 423d bfc0 8b3e bda7 6dbd
000001b0: 9a22 973d 6525 d9bc bce9 363e 0d44 2bbd
000001c0: 8e49 0b3d 1bd3 303d b079 afbd 7195 6f3c
000001d0: d01a 123e cf6c 44be ed85 c8bd 0e95 dfbd
000001e0: 7dce 9b3c 2dfc 133c b3c1 9d3d 5c82 b43b
000001f0: b34b 353d 7c64 bf3d f1e5 08be 4c34 66b9
00000200: 8edf 25bd 4c7f 0ebe e762 6e3d afa9 193e
00000210: 79ab e3bd c9a7 183d 3617 743e cff8 0abe
00000220: 1443 12be 4b3a 8dbd 508c adbc f136 843d
00000230: 167d 8fbb dd12 cdbd ceca 953d 6b63 b7bc
00000240: 1155 eb3d a0f5 5f3d 9921 583d 4b20 a8bc
00000250: 629a 5d3e e4ff 0c3e fe25 76be 6345 493d
00000260: ccc0 30bc f136 67bd 6e90 92bb c17a 793d
00000270: efe4 bbbd a12e 80bc 2f20 e5bc a9aa a8bd
00000280: 3dd9 15bb a186 163e 33c0 dbbc d1ef 1c3c
00000290: 45bd 06bd 4d16 b23d b83b 953d 7f08 38bd
000002a0: 0488 fc3c 79af 7d3d fa2a ea3d 9459 333e
000002b0: 98f5 303d e8ee 87bd eab4 793d aec5 0dbe
000002c0: 99f0 1bbd 1b25 f93d 1f58 113e 6213 213e
000002d0: 69d8 513e 3b5b 673d 2bfd cbbd 2fa0 b43c
000002e0: 4870 2f3d bb01 743d 22f0 ae3d 2531 2e3c
000002f0: 2c74 543e 7f7c e13d baeb 4fbc 235d d63d
00000300: 205f 9f3d a47e 803d 61dd 073e b64c e8bb
00000310: 939b 32bd 3977 9ebc 8a74 013e a7cd 0b3e
00000320: 88cd ac3b dd4f 193e 24bd 9d3d e7f4 a2bd
00000330: 487d 923d 67b9 703e 5e5d 673e 07c3 463c
00000340: 5bb2 d23b ad2d 943d 9b4b 6bbc 2c07 bcbd
00000350: e509 0ebd 7c9b 063e 9c4a 983d a810 b7bd
00000360: e40b 3cbd 1ab2 c0bd 2ac1 e7bd ff2c 3e3e
00000370: 40e4 55bd 7989 e63d ecaa e1bd 6bac bcbe
00000380: 714a a9be 440a 713d 34cd 8dbd 72d6 3abd
00000390: 2e60 603d 7893 2cbd 26da 0c3d ac8e b13d
000003a0: f8d9 54bd 939e 06bd 1257 e73c 7239 933c
000003b0: c500 b93d 5713 cbbd bc39 d0bd 6cff 7cbd
000003c0: 08b8 c03d 4ff4 b03d effe cb3d 2a64 943d
000003d0: 8319 d73d 55f5 403d fb00 9b3a 2649 8b3d
000003e0: 79a6 6a3c 869d 2ebd 533c d13b 5238 7ebd
000003f0: ea7d a8bc daaa 8ebd 8877 773d ab3a dc3d

down1.2.bias f4 [12]
0.011896391 0.105459966 0.09829065 0.03996294 -0.06441617 0.009259052 0.022566626 0.081612535
0.0059190677 0.04749191 0.006529284 -0.104674146
00000000: 15e9 423c 65fb d73d 9c4c c93d 2eb0 233d
00000010: a0ec 83bd 47b3 173c a5dd b83c 7924 a73d
00000020: bdf4 c13b e186 423d 9bf3 d53b 665f d6bd

down2.0.weight f4 [12, 12, 1, 1]
0.03589204 0.044774476 -0.1514981 -0.22672956 0.19537327 -0.4677287 -0.11803414 0.23980486
0.17148979 -0.35317755 -0.07583928 -0.41075465 0.0031559302 0.35386097 0.2194359 0.27570683
0.25661045 0.17979111 0.0048109908 0.32794985 0.059481107 0.47952542 -0.26413077 0.1642147
0.23501745 0.4160995 0.13000831 0.12530147 0.019734409 -0.0146046905 0.026126066 0.37243235
-0.1786112 0.5629684 -0.22144352 0.23333071 -0.23869607 0.061145 0.21277858 -0.05230044
-0.11648767 -0.054060858 0.029099083 -0.17631146 -0.21819298 0.08882228 -0.28266394 0.25202578
-0.1340006 0.18953326 0.28509614 0.25272387 -0.10265284 0.18258758 0.314381 -0.060048856
0.12236587 0.038853124 -0.43815205 0.16860731 -0.16151913 -0.038922302 0.32306293 -0.06906304
-0.17510839 0.2808173 0.2303403 -0.33273315 0.23718035 -0.15644415 -0.23772544 -0.37927377
-0.05023189 -0.15048973 0.37508747 0.09982673 0.20625874 -0.47626248 0.081659585 0.2909109
-0.030065414 -0.05211667 0.111374624 -0.54299265 0.20542185 0.29431933 -0.19433753 0.039387092
0.10080856 0.2098472 -0.3263808 0.12008884 -0.1033803 0.20144804 0.2990484 -0.018386796
0.24646108 -0.008845542 -0.08685341 0.04880799 -0.078020416 0.18673174 -0.19892725 -0.25449625
-0.084774286 0.19224091 0.24864283 0.14559406 -0.25615063 3.2416818e-05 -0.17349432 -0.15044315
0.09696424 -0.005920956 0.1606073 0.26641506 -0.14372174 -0.18631947 0.19008347 -0.12945898
0.25619724 0.37182435 -0.094307125 0.19168578 -0.17133318 0.0481431 0.19856447 0.195548
0.33396456 0.25516048 -0.32887542 0.29131737 0.2770264 -0.031292833 0.20561315 0.13885197
0.17450826 0.16458194 -0.1256963 0.21925606 0.2319561 0.08231139 0.0813173 0.028124586
00000000: 8803 133d 7165 373d 5122 1bbe cb2b 68be
00000010: ee0f 483e 237a efbe e2bb f1bd 688f 753e
00000020: 059b 2f3e b0d3 b4be a051 9bbd 6f4e d2be
00000030: b9d3 4e3b 442d b53e ceb3 603e 7229 8d3e
00000040: 7262 833e 291b 383e 84a5 9d3b 0be9 a73e
00000050: 76a2 733d 5b84 f53e 263c 87be e627 283e
00000060: 6aa8 703e fe0a d53e e620 053e 074f 003e
00000070: 0eaa a13c 8348 6fbc 5506 d63c 74af be3e
00000080: dbe5 36be b21e 103f 17c2 62be 3fee 6e3e
00000090: be6c 74be 2e73 7a3d a1e2 593e fc38 56bd
000000a0: 1691 eebd eb6e 5dbd 3361 ee3c fe8a 34be
000000b0: fb6d 5fbe 75e8 b53d 54b9 90be 8609 813e
000000c0: 7437 09be 0215 423e 1ff8 913e 0665 813e
000000d0: a73b d2bd 3df8 3a3e 8cf6 a03e caf5 75bd
000000e0: f59a fa3d 7424 1f3d 7755 e0be 65a7 2c3e
000000f0: 4565 25be fe6c 1fbd 8168 a53e ec70 8dbd
00000100: 9d4f 33be 49c7 8f3e 54de 6b3e 005c aabe
00000110: 68df 723e e532 20be 4c6e 73be 2c30 c2be
00000120: f4bf 4dbd fb19 1abe 770b c03e f571 cc3d
00000130: 7e35 533e add8 f3be 243d a73d 46f2 943e
00000140: be4b f6bc 4a78 55bd 6118 e43d 9101 0bbf
00000150: 1b5a 523e 06b1 963e 6b00 47be 5c54 213d
00000160: b874 ce3d 2fe2 563e 621b a7be 23f1 f53d
00000170: 0db9 d3bd 6548 4e3e df1c 993e e89f 96bc
00000180: 4b60 7c3e e4ec 10bc 33e0 b1bd e3ea 473d
00000190: 2bc9 9fbd 9b36 3f3e 96b3 4bbe 554d 82be
000001a0: 249e adbd cdda 443e 3a9c 7e3e 9c16 153e
000001b0: 2d26 83be 4bf7 0738 7fa8 31be c50d 1abe
000001c0: 3095 c63d 9404 c2bb 3d76 243e 8e67 883e
000001d0: cb2b 13be 88ca 3ebe 3ea5 423e e590 04be
000001e0: 492c 833e c35f be3e 1824 c1bd 4749 443e
000001f0: f771 2fbe b331 453d 7c54 4b3e bc3d 483e
00000200: 67fd aa3e 65a4 823e 5c62 a8be 8d27 953e
00000210: 68d6 8d3e ea2c 00bd 418c 523e 362f 0e3e
00000220: 4bb2 323e 2b88 283e 88b6 00be a984 603e
00000230: e685 6d3e e092 a83d af89 a63d 8865 e63c

down2.0.bias f4 [12]
0.2963532 0.18067695 -0.020676073 -0.24311139 0.045888156 0.23808047 0.11568967 0.024018334
-0.27614224 0.03108673 -0.020789968 0.105602525
00000000: 9bbb 973e 6103 393e de60 a9bc 31f2 78be
00000010: 38f5 3b3d 5ecb 733e b5ee ec3d 19c2 c43c
00000020: 8462 8dbe 99a9 fe3c b94f aabc 2346 d83d

down2.2.weight f4 [20, 12, 3, 3]
-0.0469249 -0.08265784 -0.008827311 -0.14801155 0.12882374 0.21054082 0.019747423 0.051456336
0.14087974 -0.024101848 -0.121805854 -0.13264874 -0.02811753 0.110513754 0.10414222 0.049789846
0.070874624 -0.009195137 0.0005421259 -0.09493787 -0.21697764 0.033294365 0.0017310302 0.10112968
-0.07125957 0.13324742 0.030888453 -0.02533134 0.021233864 -0.07312049 0.059413064 -0.045403093
-0.09020975 -0.030020956 -0.04566468 0.083609685 0.0007889741 -0.09581183 -0.18009543 -0.045427207
0.08206611 -0.0029924654 0.05790616 0.18227334 0.015574257 0.05257377 -0.11544912 -0.04321412
0.006135933 0.14355585 0.16234283 -0.06018231 0.034213882 0.014757525 -0.091365054 -0.1099457
0.04708195 -0.1610863 0.08683905 0.084245384 -0.11480227 0.020061376 0.015573681 0.2187383
0.10596823 0.1887505 0.120155476 0.0332543 0.08376779 0.29552335 -0.0054498445 0.19878569
0.035055954 0.0010526978 -0.033309042 0.07805035 -0.039402835 0.048323415 -0.011612568 -0.04665318
0.066755876 -0.003360744 -0.044271983 0.017944396 0.05835088 0.02197421 -0.016997648 -0.07183165
-0.0037902212 0.057226237 -0.0298695 -0.15732475 -0.20739032 0.061179247 0.048941813 0.096084334
-0.045389734 0.15761429 0.011553055 -0.051980704 -0.14843108 -0.08356633 -0.080937125 0.16430847
0.12199267 0.004469098 0.12111609 0.057421256 0.066152595 0.090376586 -0.02387812 -0.044245586
0.090358384 -0.0812985 0.0438536 0.10630035 -0.041563794 0.04249718 -0.05481362 -0.08249728
0.10749822 0.07660993 0.03856807 -0.081174456 -0.06311575 -0.08835462 0.14502716 0.1339538
-0.10223098 0.09187077 0.090158485 -0.1481032 -0.051525667 -0.13481432 -0.1921475 -0.06563611
-0.0117441565 0.025966961 0.021178838 0.06054553 0.087663166 0.06399058 0.05292861 0.03459532
0.06746377 0.0023342962 -0.11521489 -0.009712184 -0.01628498 -0.1514985 -0.005099348 -0.09774571
-0.106214546 0.035810295 -0.0288731 -0.04197756 0.06709469 0.07948159 0.010882395 0.033945665
0.08101316 -0.040470924 0.2249372 0.09370623 -0.017481409 0.031313214 0.046834618 -0.062219962
0.11093076 0.086578205 0.020505102 -0.16535713 0.049271148 0.050795197 -0.1523154 0.048858136
-0.047280427 -0.14163655 -0.041292563 0.117982246 0.049502455 -0.07858533 -0.04025156 -0.016231902
0.05127328 -0.007446164 -0.09198274 0.07403641 -0.033804823 0.039138537 0.002576426 -0.08090798
0.029627113 0.034265254 -0.06318995 0.07340851 -0.06942711 -0.021310696 0.022877607 0.015962383
-0.093994185 -0.008278001 0.077922404 -0.19891743 0.096557185 0.00380808 -0.24497269 0.07730878
0.06979162 -0.0417749 -0.045303315 -0.08632947 -0.029155958 0.084288836 0.08745541 -0.10795144
0.22575934 0.073234156 0.07170603 -0.16474557 -0.049481913 -0.0028792638 -0.30471516 -0.022217384
-0.15118362 -0.08005636 0.04793636 -0.07016891 -0.095400736 -0.0074313334 0.04655427 0.037437916
0.026653506 0.04801342 -0.08309338 -0.06861685 0.024217503 0.0657779 -0.057281327 0.05455103
0.087140836 0.015186812 0.051668152 -0.07426231 -0.007168298 -0.06613117 0.093760274 -0.062831394
-0.033757925 -0.090273626 -0.02706447 0.022053003 0.06708299 -0.057754815 0.060413755 0.029329931
00000000: 5334 40bd 8348 a9bd 6da0 10bc 5790 17be
00000010: 5fea 033e 0398 573e 59c5 a13c e1c3 523d
00000020: c742 103e 3d71 c5bc 5975 f9bd 12d5 07be
00000030: bc56 e6bc 0955 e23d 8448 d53d 70f0 4b3d
00000040: b726 913d 33a7 16bc 741d 0e3a c96e c2bd
00000050: 632f 5ebe ac5f 083d bce3 e23a 141d cf3d
00000060: 8af0 91bd 0372 083e c809 fd3c ac83 cfbc
00000070: a4f2 ad3c 32c0 95bd 1d5b 733d 98f8 39bd
00000080: e4bf b8bd 82ee f5bc e30a 3bbd 8e3b ab3d
00000090: 28d3 4e3a fe38 c4bd f06a 38be e111 3abd
000000a0: 4712 a83d 3d1d 44bb 022f 6d3d dda5 3a3e
000000b0: 2b2b 7f3c 9857 573d 9770 ecbd 4a01 31bd
000000c0: f00f c93b 4e00 133e 333d 263e ba81 76bd
000000d0: db23 0c3d 8cc9 713c 9a1d bbbd 362b e1bd
000000e0: 01d9 403d cff3 24be acd8 b13d d888 ac3d
000000f0: 741d ebbd c157 a43c c128 7f3c effc 5f3e
00000100: df05 d93d d047 413e 1314 f63d a935 083d
00000110: 728e ab3d d64e 973e 9c94 b2bb 7a8e 4b3e
00000120: d596 0f3d adfa 893a 106f 08bd ddd8 9f3d
00000130: de64 21bd c6ee 453d a442 3ebc 6817 3fbd
00000140: 4eb7 883d ee3f 5cbb 8a56 35bd 2000 933c
00000150: 5501 6f3d 4203 b43c a73e 8bbc 791c 93bd
00000160: 5c65 78bb 0f66 6a3d e2b0 f4bc bd19 21be
00000170: 215e 54be 1797 7a3d 3677 483d ddc7 c43d
00000180: 96ea 39bd a465 213e 0649 3d3c b8e9 54bd
00000190: 51fe 17be d324 abbd 5dc2 a5bd 7b40 283e
000001a0: 4bd7 f93d 8371 923b b60b f83d 8d32 6b3d
000001b0: 037b 873d 5c17 b93d 0c9c c3bc dc3a 35bd
000001c0: d10d b93d d47f a6bd d59f 333d ffb3 d93d
000001d0: cc3e 2abd 8611 2e3d 3f84 60bd 55f4 a8bd
000001e0: 0728 dc3d abe5 9c3d 8df9 1d3d cb3e a6bd
000001f0: d542 81bd 44f3 b4bd 0082 143e 2f2b 093e
00000200: 7a5e d1bd be26 bc3d 03a5 b83d 5ea8 17be
00000210: 940c 53bd c40c 0abe 50c2 44be 3a6c 86bd
00000220: 906a 40bc aab8 d43c 3e7f ad3c 97fe 773d
00000230: bf88 b33d 7e0d 833d accb 583d d2b3 0d3d
00000240: 722a 8a3d fefa 183b c9f5 ebbd da1f 1fbc
00000250: 1468 85bc 6c22 1bbe 6e18 a7bb e72e c8bd
00000260: 0387 d9bd d1ad 123d 4887 ecbc a9f0 2bbd
00000270: f168 893d 3ec7 a23d 134c 323c 9c0a 0b3d
00000280: 3aea a53d d7c4 25bd f055 663e 0de9 bf3d
00000290: 2c35 8fbc 4942 003d a8d5 3f3d 5cda 7ebd
000002a0: ab2f e33d ea4f b13d 51fa a73c 6153 29be
000002b0: 8bd0 493d a00e 503d 91f8 1bbe 781f 483d
000002c0: 1fa9 41bd 2c09 11be 6422 29bd ada0 f13d
000002d0: 16c3 4a3d 58f1 a0bd d2de 24bd c4f8 84bc
000002e0: ee03 523d f3fe f3bb 7261 bcbd 67a0 973d
000002f0: ed76 0abd bb4f 203d 41d9 283b 15b3 a5bd
00000300: 8fb4 f23c b959 0c3d bc69 81bd 3357 963d
00000310: cd2f 8ebd c593 aebc d269 bb3c 8bc3 823c
00000320: 0680 c0bd 74a0 07bc c895 9f3d 03b1 4bbe
00000330: c6bf c53d fb90 793b 1fda 7abe 1154 9e3d
00000340: e9ee 8e3d 281c 2bbd f88f 39bd 81cd b0bd
00000350: 7ad8 eebc a09f ac3d d21b b33d a515 ddbd
00000360: 752d 673e cafb 953d 9cda 923d 10b3 28be
00000370: 8cad 4abd 08b2 3cbb a003 9cbe 3b01 b6bc
00000380: e1cf 1abe 97f4 a3bd eb58 443d b8b4 8fbd
00000390: 7661 c3bd 8b82 f3bb b1af 3e3d 8058 193d
000003a0: 7458 da3c b8a9 443d dd2c aabd fe86 8cbd
000003b0: c963 c63c 90b6 863d d39f 6abd e770 5f3d
000003c0: e576 b23d 1bd2 783c fca1 533d d716 98bd
000003d0: 0be4 eabb c76f 87bd 6305 c03d bfad 80bd
000003e0: c045 0abd 61e1 b8bd 4fb6 ddbc 80a8 b43c
000003f0: cf62 893d 5090 6cbd 6a74 773d 5345 f03c

down2.2.bias f4 [20]
0.045184694 0.014537395 -0.108221225 0.0032636398 0.11418291 -0.06239712 0.028648961 -0.08900796
-0.10814599 -0.087397344 -0.055665124 0.050560012 0.081361964 0.08311242 -0.024954805 -0.00487709
0.03862817 0.01896479 0.039592117 0.0159833
00000000: 9613 393d 412e 6e3c 17a3 ddbd cae2 553b
00000010: bbd8 e93d 1f94 7fbd 3ab1 ea3c ce49 b6bd
00000020: a57b ddbd 61fd b2bd 1d01 64bd 0418 4f3d
00000030: 1aa1 a63d d836 aa3d 056e ccbc ffcf 9fbb
00000040: 9238 1e3d 0c5c 9b3c 582b 223d 69ef 823c

up1.1.weight f4 [20, 20, 1, 1]
0.05719026 -0.054350417 0.12245783 -0.036979366 -0.24393825 0.22279538 0.19847663 0.015816705
-0.20081721 -0.122384556 0.1647023 -0.29699054 -0.011039058 0.08184545 -0.17722827 0.19804423
0.07042794 -0.20875004 -0.0992142 0.17342243 0.15004833 -0.34858295 0.33198786 0.05721688
0.1309159 -0.03617484 -0.13977468 -0.108000375 0.24366249 -0.15398276 0.054441802 -0.0019588391
-0.08845733 -0.08243599 -0.22366287 0.03611802 -0.11455261 0.13592973 0.07809455 0.21103463
-0.07923018 -0.24505574 0.323532 -0.08904175 0.106548734 -0.20120078 0.10703248 -0.18278567
0.11458469 -0.07216576 0.17472643 -0.093392834 0.15248363 0.13297425 -0.06810181 0.14402837
-0.14696208 0.031147854 -0.10915937 0.0034815953 0.011242899 -0.11541002 0.18508588 -0.21354485
0.2462623 -0.15730023 0.19349413 0.13031666 -0.10723562 0.17686124 0.1697375 -0.022035707
0.2113632 0.14153753 0.13734026 0.12904914 -0.016687445 0.078054376 -0.034551054 0.23110613
0.29428032 0.28195357 -0.083924495 0.1444311 0.09632434 -0.22144488 0.32614672 -0.14967088
-0.06333403 0.015083915 0.013883275 0.21280938 -0.086886235 0.023664404 0.101690695 -0.1030177
-0.14480342 -0.13258591 0.03238131 -0.08805929 -0.07629489 0.3176392 0.034106433 0.0155270295
0.026375525 -0.06541813 -0.25970948 -0.10260374 -0.17648336 0.12395947 0.1391478 0.19160388
-0.07134358 0.024690941 -0.10454232 -0.023983555 -0.11727924 0.18936399 0.03953985 0.0112500675
-0.15210412 -0.12592378 -0.09906299 0.078656144 -0.16529451 0.016095404 -0.19221236 0.032798246
0.034441587 0.077636555 0.043761965 -0.10086176 -0.123721175 -0.1923217 0.08823632 -0.13017505
0.046399392 -0.20202088 -0.13255776 0.16475001 0.30250642 0.08110279 -0.08060344 0.08488838
0.18482476 0.15085591 -0.3211588 0.10961973 -0.12142462 -0.015770253 0.12968822 0.23897208
0.1774149 0.13652898 0.15900567 -0.033242483 -0.20612925 -0.08820268 0.14785987 -0.010112361
-0.14603029 0.05837749 0.32083145 -0.064722925 0.09725034 -0.05740687 0.48408502 0.21414497
0.15802683 -0.095543936 -0.007430202 -0.1982808 0.15800953 -0.031678498 -0.19674921 -0.11953054
-0.012334532 -0.15900029 -0.061119765 0.058479987 0.072026916 -0.026431663 -0.15418048 0.19544025
-0.1080003 -0.0064342003 -0.04336378 -0.1845371 0.09652804 0.15488462 0.21371251 0.058816783
-0.22218338 0.06834516 0.16423003 0.11243219 -0.017577795 0.1444022 0.011331883 0.09180417
0.1123487 -0.1615449 -0.065060556 -0.101664506 -0.036134947 -0.09124954 0.20939597 0.10803655
0.049277674 -0.075290956 0.21878414 -0.1392863 -0.16256854 0.057299964 0.0993399 0.09280436
-0.16038078 -0.06297447 -0.17122984 -0.068538785 -0.32512143 -0.20740524 -0.18429993 -0.1679712
-0.08199507 -0.1749335 -0.15034795 -0.024650976 0.29501593 0.001682154 -0.052739244 0.11201581
0.19405812 0.0853255 -0.097825065 0.11082564 0.14146079 0.22335654 0.24719433 0.14324653
-0.019437855 -0.31763074 0.26387954 -0.045379706 -0.049650114 -0.0031434097 -0.050093982 0.23250066
-0.06554039 0.19013858 -0.1312076 -0.06744741 -0.18797128 0.09008784 -0.016031109 -0.15550882
00000000: 5640 6a3d 8b9e 5ebd 2ccb fa3d ad77 17bd
00000010: f3ca 79be 7924 643e 753d 4b3e 0992 813c
00000020: 07a3 4dbe c1a4 fabd b8a7 283e 250f 98be
00000030: 2add 34bc 969e a73d 547b 35be 1bcc 4a3e
00000040: 863c 903d 92c2 55be d130 cbbd a695 313e
00000050: 45a6 193e 7779 b2be 50fa a93e 3f5c 6a3d
00000060: d10e 063e 122c 14bd 1821 0fbe 4d2f ddbd
00000070: a982 793e a8ad 1dbe 5efe 5e3d de5f 00bb
00000080: 1e29 b5bd 33d4 a8bd e107 65be 7df0 133d
00000090: 8f9a eabd 2a31 0b3e 09f0 9f3d 7619 583e
000000a0: 6f43 a2bd e4ef 7abe fca5 a53e 855b b6bd
000000b0: 3936 da3d 9407 4ebe d833 db3d 2b2c 3bbe
000000c0: 61ab ea3d a4cb 93bd 7ceb 323e be44 bfbd
000000d0: ab24 1c3e 672a 083e f678 8bbd 2c7c 133e
000000e0: 3a7d 16be c929 ff3c f38e dfbd 7a2b 643b
000000f0: 2334 383c 175c ecbd 2787 3d3e 80ab 5abe
00000100: 2f2c 7c3e 5013 21be 5323 463e bb71 053e
00000110: 599e dbbd 1d1b 353e abcf 2d3e 3a84 b4bc
00000120: 986f 583e 37ef 103e eda2 0c3e 7525 043e
00000130: 1cb4 88bc f9da 9f3d 6885 0dbd 16a7 6c3e
00000140: e9ab 963e 385c 903e 9be0 abbd bfe5 133e
00000150: b245 c53d 72c2 62be b4fc a63e 5343 19be
00000160: 46b5 81bd 8622 773c ad76 633c b4ea 593e
00000170: 69f1 b1bd dadb c13c 3643 d03d f2fa d2bd
00000180: 5947 14be 9ac4 07be 44a2 043d 6e58 b4bd
00000190: 7f40 9cbd 9ba1 a23e 30b3 0b3d 1565 7e3c
000001a0: 7c11 d83c f1f9 85bd a4f8 84be e921 d2bd
000001b0: 0eb8 34be 76de fd3d c37c 0e3e cf33 443e
000001c0: 951c 92bd a844 ca3c 491a d6bd 2979 c4bc
000001d0: 1930 f0bd a2e8 413e 8af4 213d 3452 383c
000001e0: 2fc1 1bbe 2af2 00be 89e1 cabd 7916 a13d
000001f0: f742 29be 82da 833c 51d3 44be 7457 063d
00000200: 9f12 0d3d eaff 9e3d bf3f 333d 9c90 cebd
00000210: 8761 fdbd fbef 44be 3eb5 b43d 9c4c 05be
00000220: 4a0d 3e3d 90de 4ebe 39bd 07be 3ab4 283e
00000230: 1fe2 9a3e 3819 a63d 6b13 a5bd f5d9 ad3d
00000240: b442 3d3e f979 1a3e ed6e a4be 4f80 e03d
00000250: 79ad f8bd 9e30 81bc fdcc 043e 19b5 743e
00000260: 40ac 353e 41ce 0b3e 62d2 223e 4529 08bd
00000270: 8c13 53be 9ba3 b4bd 9468 173e 51ae 25bc
00000280: f788 15be 3c1d 6f3d 0544 a43e 748d 84bd
00000290: 302b c73d 7723 6bbd fed9 f73e d248 5b3e
000002a0: c9d1 213e 8aac c3bd 0d79 f3bb 1f0a 4bbe
000002b0: 40cd 213e 50c1 01bd a078 49be 6ecc f4bd
000002c0: c716 4abc f9d0 22be b858 7abd b688 6f3d
000002d0: d982 933d 3787 d8bc 7de1 1dbe 7d21 483e
000002e0: 432f ddbd fcd5 d2bb 389e 31bd 4bf7 3cbe
000002f0: 7eb0 c53d 139a 1e3e 74d7 5a3e dee9 703d
00000300: 0a84 63be 8cf8 8b3d eb2b 283e d942 e63d
00000310: 4fff 8fbc 2cde 133e 5da9 393c d303 bc3d
00000320: 1317 e63d 076c 25be 783e 85bd 7b35 d0bd
00000330: 3d02 14bd 0ae1 babd e66b 563e 4442 dd3d
00000340: 63d7 493d 2532 9abd f308 603e 11a1 0ebe
00000350: 5e78 26be 5eb3 6a3d b872 cb3d 3610 be3d
00000360: dc3a 24be c2f8 80bd e056 2fbe 105e 8cbd
00000370: 5176 a6be 0a62 54be 1fb9 3cbe a400 2cbe
00000380: 08ed a7bd c421 33be d0f4 19be d8f0 c9bc
00000390: 540c 973e b97b dc3a 1b05 58bd 8c68 e53d
000003a0: 2cb7 463e 23bf ae3d 8258 c8bd 8ef8 e23d
000003b0: 19db 103e 94b7 643e 8320 7d3e 38af 123e
000003c0: 233c 9fbc 7fa0 a2be 381b 873e 12e0 39bd
000003d0: eb5d 4bbd aa01 4ebb 592f 4dbd a714 6e3e
000003e0: 0a3a 86bd b0b3 423e 495b 06be de21 8abd
000003f0: 8b7b 40be f97f b83d ac53 83bc b43d 1fbe

up1.1.bias f4 [20]
0.25025034 -0.15926346 0.19603795 0.15200865 0.12535678 0.07440599 0.01968085 -0.06622552
0.05651482 -0.07326462 -0.13542327 0.10884862 0.116340466 -0.15098163 -0.12947372 0.2231533
-0.11447865 -0.028624874 0.17630237 0.02526571
00000000: d020 803e f615 23be 2cbe 483e 28a8 1b3e
00000010: 875d 003e 2b62 983d bc39 a13c 3fa1 87bd
00000020: 157c 673d c30b 96bd 66ac 0abe 06ec de3d
00000030: e943 ee3d ee9a 1abe c294 04be 4c82 643e
00000040: c873 eabd b67e eabc 9c88 343e 09fa ce3c

up1.3.weight f4 [12, 20, 3, 3]
-0.09889708 0.06100128 0.05986069 -0.030009666 0.07386299 0.07403435 -0.060498923 0.06363219
0.03422451 0.016545858 0.13306683 -0.06128547 0.054040298 0.10216961 0.058079813 0.015794082
0.098908186 0.015910171 -0.056802128 -0.006063613 -0.023721015 0.03284995 0.034567114 0.0791155
0.077555455 0.054572344 0.068255484 -0.020145657 0.090284 -0.051959626 0.028099854 0.02320791
-0.010984918 -0.028415356 0.02262433 0.002940757 0.0117180385 -0.042117946 0.027818965 -0.035881296
0.07297548 0.06754612 0.0012094912 -0.013587906 -0.0062083965 0.06923138 0.102907814 0.056932643
0.047782786 -0.051383838 -0.024748703 0.080638036 0.00014592252 -0.01717294 -0.031056084 0.010571275
-0.060130235 -0.04073585 0.0088007655 0.053485528 -0.037794687 0.053236794 -0.020618249 -0.17610417
-0.043284833 -0.1875822 0.0030176295 0.0037709444 -0.1407429 0.013472889 0.057767183 -0.14766987
-0.014738007 0.010473593 0.07749551 0.10391093 0.110442005 -0.023665454 -0.050589383 0.084891126
-0.00081770256 -0.013127706 0.009883035 -0.045473624 0.03993722 -0.036789432 0.06402973 0.072983935
-0.047230657 -0.031673685 -0.050971188 0.0035057971 -0.03541195 0.04870369 -0.07608217 -0.014862788
-0.051397283 0.0009825361 0.02024384 0.08422331 0.09928223 0.011840579 -0.0476041 0.061291423
0.028897056 0.018589087 -0.004036516 0.012428306 -0.057310138 -0.0068088416 -0.00981655 -0.07212739
0.035844173 -0.018285425 -0.071049884 -0.02436741 0.020733066 0.025404599 0.006630869 -0.009919212
-0.01660162 0.053096913 0.062328108 0.061212387 0.13908248 0.14531972 0.023082845 0.04814244
-0.055503175 0.045322377 -0.068005644 -0.06452159 0.03565821 -0.041618727 -0.023541104 0.041919436
0.01845167 0.059861913 -0.035857994 0.09129358 0.020739356 0.034197584 -0.048317913 0.002480779
0.05731804 -0.013909256 -0.0058922707 0.03359789 -1.8659206e-06 0.018080806 0.004426834 0.017048826
0.04998938 0.06213647 0.01714948 0.0519154 -0.03887199 -0.01999999 0.021562072 0.046732727
-0.06629023 -0.06761173 0.08840375 -0.027046392 0.004242374 0.09583444 0.024871279 0.004981026
0.010277486 0.07431334 0.050921414 -0.028611986 -0.033202633 0.0074536684 0.024458513 0.06389678
-0.052518047 -0.06114801 0.043646708 -0.04755037 -0.07672839 0.017359637 -0.061233744 -0.042069662
0.021707486 -0.08342016 0.03751293 -0.02541334 -0.0051236865 -0.03738077 0.051250868 -0.06312693
0.013045008 -0.02717422 -0.0051342463 0.044795867 0.030387377 -0.004924548 -0.0025480618 0.045719843
0.018831132 0.02869898 0.038533792 -0.05265806 0.021337602 -0.052896775 -0.013568945 -0.02184746
-0.0794087 -0.05946214 -0.021937937 -0.042430785 -0.0034506544 0.0037561145 -0.03597093 -0.07585308
0.05100087 -0.040483166 -0.08399584 -0.009495558 0.05269348 -0.06695672 0.02491174 0.034915492
0.020680126 -0.07157634 0.058880936 -0.067910425 0.015711246 -0.071733505 -0.020193571 -0.056742854
0.01767788 0.03205353 0.03483766 0.03268151 0.01532852 0.0391157 0.004977521 0.073126905
-0.022957638 0.053170554 0.05974468 0.0279102 0.041993637 0.037219126 0.0045570326 -0.060549058
-0.08250011 0.042877655 -0.07282384 -0.054242194 -0.00039011388 -0.06847833 0.04738988 0.06218805
00000000: 8d8a cabd 7adc 793d 7c30 753d d5d6 f5bc
00000010: 7b45 973d 529f 973d b8cd 77bd 9851 823d
00000020: 002f 0c3d 2e8b 873c ac42 083e 7906 7bbd
00000030: 5c59 5d3d 4d3e d13d 19e5 6d3d 9762 813c
00000040: 6090 ca3d 0c56 823c 59a9 68bd 46b1 c6bb
00000050: 9352 c2bc ab8d 063d 3f96 0d3d 4f07 a23d
00000060: 65d5 9e3d 4087 5f3d 88c9 8b3d 8108 a5bc
00000070: d1e6 b83d 9ed3 54bd aa31 e63c 841e be3c
00000080: 16fa 33bc 52c7 e8bc a956 b93c b7b9 403b
00000090: 04fd 3f3c de83 2cbd 99e4 e33c 44f8 12bd
000000a0: 2b74 953d 9f55 8a3d ca87 9e3a cf9f 5ebc
000000b0: ce6f cbbb 2fc9 8d3d 55c1 d23d 3432 693d
000000c0: e2b7 433d dc77 52bd cbbd cabc 8e25 a53d
000000d0: c702 1939 44ae 8cbc 5469 febc 2433 2d3c
000000e0: 1f4b 76bd a2da 26bd 1631 103c a413 5b3d
000000f0: 9ace 1abd d30e 5a3d 9ae7 a8bc a754 34be
00000100: 704b 31bd 8c15 40be 6cc3 453b f321 773b
00000110: e81e 10be 64bd 5c3c 489d 6c3d c536 17be
00000120: af77 71bc 6f99 2b3c f7b5 9e3d 41cf d43d
00000130: 6b2f e23d 0ede c1bc d036 4fbd 66db ad3d
00000140: 175b 56ba 9715 57bc 74ec 213c 8d42 3abd
00000150: 3695 233d 84b0 16bd 0522 833d 9a78 953d
00000160: ef74 41bd 44bc 01bd 2ac7 50bd 84c1 653b
00000170: 1f0c 11bd 857d 473d f8d0 9bbd 0d83 73bc
00000180: f585 52bd 71c8 803a 69d6 a53c 457d ac3d
00000190: 7b54 cb3d fdfe 413c 84fc 42bd b70c 7b3d
000001a0: 85b9 ec3c 2448 983c c044 84bb 18a0 4b3c
000001b0: 09be 6abd b41c dfbb 98d5 20bc 86b7 93bd
000001c0: 57d1 123d 51cb 95bc 9a82 91bd 2a9e c7bc
000001d0: 64d8 a93c 4e1d d03c c347 d93b 3184 22bc
000001e0: 1f00 88bc 267c 593d c24b 7f3d d7b9 7a3d
000001f0: a36b 0e3e b1ce 143e 3c18 bd3c 0231 453d
00000200: 4c57 63bd f5a3 393d 8b46 8bbd e523 84bd
00000210: 580e 123d 6678 2abd 46d9 c0bc b7b3 2b3d
00000220: f527 973c c431 753d d5df 12bd 21f8 ba3d
00000230: 95e5 a93c c412 0c3d 01e9 45bd 9194 223b
00000240: 52c6 6a3d a6e3 63bc f313 c1bb f19d 093d
00000250: 8b70 fab5 331e 943c fa0e 913b fba9 8b3c
00000260: aac1 4c3d d082 7e3d 117d 8c3c 3ea5 543d
00000270: 3c38 1fbd 05d7 a3bc f1a2 b03c d16a 3f3d
00000280: 2cc3 87bd 0578 8abd 060d b53d 6590 ddbc
00000290: 9d03 8b3b d944 c43d dabe cb3c e037 a33b
000002a0: e762 283c 9831 983d f992 503d af63 eabc
000002b0: 7cff 07bd e73d f43b 385d c83c 51dc 823d
000002c0: 2a1d 57bd 5676 7abd e4c6 323d 2dc4 42bd
000002d0: c623 9dbd cc35 8e3c 3cd0 7abd 3d51 2cbd
000002e0: e6d3 b13c 30d8 aabd 28a7 193d a32f d0bc
000002f0: 99e4 a7bb 941c 19bd 6eec 513d b148 81bd
00000300: bbba 553c 789c debc 2e3d a8bb df7b 373d
00000310: f3ee f83c 1a5e a1bb 62fd 26bb bb44 3b3d
00000320: bf43 9a3c 201a eb3c 9cd5 1d3d faaf 57bd
00000330: 32cc ae3c 4aaa 58bd 4850 5ebc 72f9 b2bc
00000340: 07a1 a2bd 938e 73bd 30b7 b3bc e7cb 2dbd
00000350: 6024 62bb 2529 763b 4156 13bd dc58 9bbd
00000360: 4ae6 503d add1 25bd 0306 acbd 4293 1bbc
00000370: 1ed5 573d 9b20 89bd b513 cc3c 8c03 0f3d
00000380: 5e69 a93c 9e96 92bd 232d 713d 9f14 8bbd
00000390: dfb4 803c 04e9 92bd fd6c a5bc 326b 68bd
000003a0: 34d1 903c 904a 033d efb1 0e3d 0cdd 053d
000003b0: 7924 7b3c c937 203d 791a a33b 8fc3 953d
000003c0: a811 bcbc 5ec9 593d d6b6 743d efa3 e43c
000003d0: 8501 2c3d 1573 183d 2953 953b 4a02 78bd
000003e0: d1f5 a8bd 7ba0 2f3d aa24 95bd 102d 5ebd
000003f0: 3388 ccb9 5e3e 8cbd e41b 423d e6b8 7e3d

up1.3.bias f4 [12]
0.084291555 -0.023886647 0.04174959 0.050980877 0.015083853 -0.084458105 0.033041414 -0.034869958
0.032544117 -0.028404986 -0.057961997 0.0859724
00000000: 0da1 ac3d eead c3bc 9e01 2b3d 53d1 503d
00000010: 4422 773c 5ff8 acbd 6f56 073d cdd3 0ebd
00000020: fb4c 053d 93b1 e8bc 8f69 6dbd 4c12 b03d

up2.1.weight f4 [24, 24, 1, 1]
-0.09897522 0.18621892 0.015304386 -0.096713394 0.19709793 0.036131836 -0.09359919 -0.1466534
-0.10796752 0.037118305 0.13719937 -0.15260881 0.0005962504 -0.04874283 0.17980576 0.1625789
-0.024655566 0.1421562 -0.09955634 -0.17928898 0.22342642 0.12459982 0.15945423 -0.0054106913
0.19225499 -0.17182396 -0.19666374 -0.110135935 -0.09835775 -0.050449245 -0.056751307 0.14927399
0.13306603 -0.06768673 -0.06641162 0.09660848 0.10096755 0.14824855 0.025245497 -0.08219
-0.09786382 0.321094 0.17694576 0.02049912 0.26168925 0.06487936 -0.1282184 0.15014791
-0.10168665 0.18875307 0.13767894 -0.00985598 -0.1101401 0.032465912 0.22326343 0.011621966
-0.15930982 -0.011816495 -0.3465603 0.24630286 0.21745323 0.07065353 0.048930295 -0.1386863
0.019329254 -0.14102189 -0.16033627 -0.111774646 -0.08830208 0.069759086 0.1505746 0.087262645
-0.0030111417 -0.1388805 -0.1217418 0.10493097 0.017859058 -0.16572401 -0.04452677 -0.15324998
-0.18438184 0.06660718 -0.22700866 -0.12831405 0.12817869 0.12821859 0.18843518 -0.0093621295
0.04467011 0.25189137 0.18972069 0.028500022 0.45236638 0.26448503 -0.04932323 0.11561013
0.1118068 0.060498863 -0.105792746 0.119718686 0.1823785 -0.025211915 0.0641603 0.17559537
-0.024772719 -0.061036557 -0.17173453 0.29037267 -0.0642238 -0.08830091 0.06315888 -0.08524262
-0.1074463 0.3942286 0.15214096 0.06462161 0.13532051 0.10083985 0.09692867 -0.15842576
0.2459177 0.23020339 0.07618924 -0.06879869 0.06506458 -0.10827526 -0.05900617 -0.042367753
0.0791911 -0.13879456 0.19001558 0.026235705 0.08162268 -0.01662268 0.2655341 0.07185886
-0.17760786 -0.3179336 -0.14219731 0.118013 0.12921537 0.14796875 0.014529872 0.15226415
-0.14110725 0.03408164 0.16851766 0.14164767 -0.15145537 0.23867859 0.014117243 -0.21475136
0.108496666 0.080688715 0.16546442 -0.002271529 -0.00751533 0.05049984 0.16226353 -0.14010136
0.14355578 -0.1215939 0.03491522 0.18582906 0.066529624 -0.30230367 0.06468317 0.21632066
0.07238339 -0.20316553 0.015760634 0.037493706 -0.15961684 0.20353983 -0.033951808 0.08874652
0.122361585 -0.016343629 0.02303287 -0.013205934 -0.027376302 -0.09771072 -0.20266417 0.13468923
-0.12417777 -0.036304858 -0.17558798 -0.19641177 0.18448782 -0.13781594 0.10382879 -0.117186666
-0.046895295 0.13134147 -0.14686257 -0.10667793 0.17107725 0.092985526 0.10192846 -0.15009679
0.054322932 0.113840856 -0.0023888343 -0.20754734 0.019101413 -0.012944541 -0.020000124 0.19435371
-0.015414397 0.32083237 -0.08349848 -0.07962624 0.32441303 0.18790153 -0.09201442 0.20948213
0.15406476 0.084698424 0.19314833 -0.088961594 0.19502276 0.08559305 -0.089832306 0.15769626
-0.018744336 0.13256511 0.019765047 -0.09093654 -0.0013639798 0.01749744 0.1525577 -0.018904902
0.25652418 0.1381222 0.035884246 0.18447164 0.2815468 0.5855345 -0.115832224 -0.027320925
-0.025572496 -0.12399576 -0.1421636 0.35359666 -0.15657714 0.04165479 -0.16975395 -0.007587716
0.0846809 -0.17229894 0.07935717 -0.27325758 -0.13696928 0.026165795 -0.2578054 -0.18440056
00000000: 85b3 cabd 2cb0 3e3e 3fbf 7a3c ac11 c6bd
00000010: 0ad4 493e fafe 133d efb0 bfbd 4f2c 16be
00000020: 131e ddbd 5d09 183d fe7d 0c3e 7c45 1cbe
00000030: b04d 1c3a 90a6 47bd 001f 383e 157b 263e
00000040: 78fa c9bc 6591 113e 32e4 cbbd 8897 37be
00000050: e5c9 643e 312e ff3d f847 233e 2b4c b1bb
00000060: 7ede 443e 9ff2 2fbe 3862 49be f38e e1bd
00000070: ca6f c9bd dea3 4ebd 0f74 68bd 48db 183e
00000080: 7642 083e 579f 8abd d102 88bd abda c53d
00000090: 13c8 ce3d 78ce 173e a5cf ce3c 3b53 a8bd
000000a0: d46c c8bd 6f66 a43e 4531 353e c5ed a73c
000000b0: 22fc 853e 78df 843d af4b 03be 60c0 193e
000000c0: 1741 d0bd 7c48 413e b5fb 0c3e fa7a 21bc
000000d0: 2291 e1bd fafa 043d 2b9f 643e 0f6a 3e3c
000000e0: 1d22 23be f999 41bc 5a70 b1be d136 7c3e
000000f0: 0fac 5e3e ccb2 903d 226b 483d c803 0ebe
00000100: 6258 9e3c 0b68 10be 312f 24be 1bea e4bd
00000110: b9d7 b4bd dadd 8e3d 3a30 1a3e c2b6 b23d
00000120: 9356 45bb b136 0ebe c453 f9bd 0ce6 d63d
00000130: 294d 923c 8eb3 29be b461 36bd 90ed 1cbe
00000140: 98ce 3cbe 5869 883d f574 68be c264 03be
00000150: 4641 033e bc4b 033e 27f5 403e 9e63 19bc
00000160: 01f8 363d e8f7 803e 2446 423e e178 e93c
00000170: 919c e73e 956a 873e 2807 4abd 01c5 ec3d
00000180: f7fa e43d a8cd 773d dea9 d8bd 122f f53d
00000190: 6ec1 3a3e 3889 cebc 7a66 833d 46cf 333e
000001a0: 28f0 cabc 7801 7abd 2ddb 2fbe baab 943e
000001b0: c587 83bd 1cd7 b4bd 7159 813d af93 aebd
000001c0: ce0c dcbd 55d8 c93e d7ca 1b3e 5658 843d
000001d0: 7691 0a3e 2085 ce3d 8a82 c63d 5d3a 22be
000001e0: d9d1 7b3e 70ba 6b3e 1b09 9c3d 54e6 8cbd
000001f0: 9440 853d 6bbf ddbd 74b0 71bd cf89 2dbd
00000200: f22e a23d 2920 0ebe 7293 423e 43ec d63c
00000210: cb29 a73d 492c 88bc 16f4 873e bd2a 933d
00000220: d6de 35be 31c8 a2be 2c9c 11be cdb0 f13d
00000230: 0951 043e 1f85 173e b30e 6e3c 22eb 1b3e
00000240: 6b7e 10be 3199 0b3d e58f 2c3e 160c 113e
00000250: 1e17 1bbe 2968 743e 024c 673c c8e7 5bbe
00000260: 8033 de3d 2040 a53d 816f 293e efdd 14bb
00000270: 2843 f6bb ecd8 4e3d 6928 263e bb76 0fbe
00000280: 4900 133e 3906 f9bd 4303 0f3d f949 3e3e
00000290: af40 883d 8cc7 9abe 9c78 843d 2a83 5d3e
000002a0: be3d 943d a00a 50be 721c 813c 0093 193d
000002b0: 9972 23be bf6c 503e 0d11 0bbd bcc0 b53d
000002c0: b698 fa3d 13e3 85bc 6eaf bc3c b45d 58bc
000002d0: 4444 e0bc 8f1c c8bd 3287 4fbe f9eb 093e
000002e0: ea50 febd 67b4 14bd 56cd 33be 2b20 49be
000002f0: 60ea 3c3e 9f1f 0dbe 30a4 d43d 90ff efbd
00000300: 4815 40bd 617e 063e 2463 16be f579 dabd
00000310: e02e 2f3e 326f be3d debf d03d f9b2 19be
00000320: b981 5e3d 6525 e93d fd8d 1cbb 4a87 54be
00000330: 917a 9c3c 5715 54bc 4dd7 a3bc a904 473e
00000340: ab8c 7cbc 2444 a43e 4001 abbd 1513 a3bd
00000350: 7719 a63e 4269 403e 0e72 bcbd 7c82 563e
00000360: 27c3 1d3e 5e76 ad3d adc8 453e 7f31 b6bd
00000370: 0cb4 473e 694b af3d 00fa b7bd 217b 213e
00000380: b98d 99bc 26bf 073e 4fea a13c f03c babd
00000390: 91c7 b2ba cb56 8f3c 1638 1c3e 74de 9abc
000003a0: 2357 833e e86f 0d3e 5cfb 123d 22e6 3c3e
000003b0: e726 903e 97e5 153f 7239 edbd 22d0 dfbc
000003c0: 697d d1bc 7df1 fdbd 5693 11be 9f0a b53e
000003d0: c255 20be 379e 2a3d fbd3 2dbe 60a2 f8bb
000003e0: 2e6d ad3d 226f 30be 0386 a23d 6be8 8bbe
000003f0: ad41 0cbe a659 d63c 12ff 83be 80d3 3cbe

up2.1.bias f4 [24]
0.154851 0.1926479 -0.14821415 -0.11072767 -0.020641753 -0.09586442 -0.12044701 -0.20100452
0.054473758 0.023922361 0.038866665 0.0145501755 0.038791407 0.06756064 -0.1520836 0.005272534
-0.1432095 0.045945983 -0.09564061 -0.035724834 0.08463749 0.20119485 0.22469799 0.022515044
00000000: 4391 1e3e 7e45 453e 73c5 17be 30c5 e2bd
00000010: e518 a9bc 9154 c4bd ecac f6bd 21d4 4dbe
00000020: e01f 5f3d d4f8 c33c a732 1f3d dc63 6e3c
00000030: bde3 1e3d 3c5d 8a3d cebb 1bbe 39c5 ac3b
00000040: 83a5 12be db31 3c3d 39df c3bd 3454 12bd
00000050: 6c56 ad3d 0606 4e3e 3b17 663e 7871 b83c
