agent_1.onnx (onnx, 49596 bytes, 22 tensors)

initial.0.weight f4 [8, 5, 3, 3]
0	0x3dbc817e	0.09204386
1	0x3d344ff1	0.04402155
2	0x3d54c1b7	0.051942553
3	0x3e5ef857	0.21774422
4	0xbd9f72d1	-0.07785571
5	0x3e1ceda6	0.1532503
6	0x3dba8e7c	0.09109208
7	0xbd8fe98a	-0.07026966
8	0xbc383ffa	-0.011245722
9	0xbd0d4cc3	-0.034497034
10	0xbccbe587	-0.02488972
11	0x3dfadb38	0.12248844
12	0xbd3b87f8	-0.045783967
13	0x3e1044f0	0.14088798
14	0x3e5a1fb0	0.2130115
15	0x3e72bff2	0.23706034
16	0xbbe8fe2a	-0.007110377
17	0x3d667eed	0.05627339
18	0xbeb7ef04	-0.35924542
19	0xbe002e61	-0.12517692
20	0xbe680ad6	-0.22660384
21	0xbeaccd87	-0.33750555
22	0xbe8966d9	-0.2683628
23	0xbe89858a	-0.26859695
24	0xbdadcd23	-0.08486392
25	0x3d290883	0.041267883
26	0xbe5105da	-0.20412388
27	0xbdbee093	-0.09320178
28	0x3c047816	0.008085271
29	0x3e3212e5	0.1739002
30	0xbde71e60	-0.112850904
31	0xbc47ab04	-0.012186769
32	0xbc9f819c	-0.019470982
33	0x3afb9bf0	0.0019196253
34	0xbe18db67	-0.14927445
35	0x3df188e6	0.117936894
36	0xbe3b5860	-0.18295431
37	0xbb538499	-0.003227508
38	0xbdaa5683	-0.08317282
39	0xbe2bc691	-0.16774966
40	0x3dc32978	0.09529394
41	0xbea8bdd0	-0.32957315
42	0x3d0c4775	0.034247834
43	0xbd7a09af	-0.06104439
44	0x3d01507c	0.031570897
45	0x3e01a657	0.1266111
46	0xbe88f7f7	-0.26751682
47	0xbd27a1b0	-0.04092568
48	0x3b9676ec	0.0045918133
49	0x3d61643d	0.055027235
50	0x3c99e819	0.01878743
51	0x3d4d9bb0	0.050197303
52	0xbe1045d0	-0.14089131
53	0xbe949d23	-0.29026136
54	0x3e21df96	0.15807948
55	0x3d8bf9d4	0.0683476
56	0x3d6396f2	0.055563875
57	0x3d4d2af1	0.05008978
58	0xbe081d25	-0.13292368
59	0xbda20d84	-0.07912734
60	0xbe102bad	-0.14079161
61	0x3cf5e559	0.030016588
62	0xbd9598c9	-0.07304532
63	0x3d556fcb	0.052108567
64	0x3d19e1bc	0.037568793
65	0x3d65357f	0.05595922
66	0xbe2e2471	-0.17006089
67	0x3d72fc73	0.059322786
68	0xbc2ebf9c	-0.0106658
69	0xbe1c4a2a	-0.15262666
70	0x3d8c32e8	0.06845647
71	0xbdc010f6	-0.09378235
72	0x3be3515c	0.006937189
73	0x3de4c39e	0.111701235
74	0xbded3d4f	-0.11583959
75	0xbd0c7cdb	-0.03429876
76	0xbcced001	-0.025245668
77	0xbd87143f	-0.065956585
78	0xbdef8413	-0.11695113
79	0x3e3c29c6	0.1837531
80	0xbb5221da	-0.0032063634
81	0xbc978700	-0.01849699
82	0xbded2d7a	-0.115809396
83	0xbbd71978	-0.0065643154
84	0x3b801637	0.003908898
85	0x3dae89b8	0.085223615
86	0xbcc84990	-0.02444914
87	0x3db32bd2	0.087485924
88	0xbed1b54a	-0.40958625
89	0x3d958d41	0.07302333
90	0x3d830aec	0.063985676
91	0x3e05a706	0.13051996
92	0x3e1df0bf	0.15423869
93	0x3e44771c	0.19186062
94	0xbc95d173	-0.01828835
95	0x3dcfade9	0.101405926
96	0xbdbb3ad6	-0.091420814
97	0x3d1725c8	0.036901265
98	0x3dd114ee	0.1020907
99	0xbd8c69e3	-0.06856134
100	0x3dac6acd	0.08418808
101	0x3d012828	0.031532437
102	0xbd82a8d9	-0.063798614
103	0x3d9e5929	0.0773185
104	0x3cd64f79	0.026160942
105	0xbd6bb07a	-0.057541348
106	0xbe2d3347	-0.16914092
107	0x3db364e3	0.08759477
108	0x3db15f57	0.08660763
109	0x3b807375	0.0039200136
110	0x3d6bf22e	0.057604007
111	0xbd3d8b13	-0.04627521
112	0xbc96602c	-0.018356405
113	0xbe2c9278	-0.16852748
114	0xbd726e1b	-0.059187036
115	0xbdc0f610	-0.09421933
116	0xbc2778d0	-0.010221675
117	0xbd7f92e4	-0.062395945
118	0xbd1bf3ba	-0.038074233
119	0xbe053cf8	-0.13011539
120	0xbd734979	-0.05939624
121	0x3c7cc9c7	0.015428967
122	0xbca482d6	-0.020081919
123	0x3c1c1668	0.009526826
124	0xbd968610	-0.07349789
125	0xba993ce3	-0.0011691119
126	0xbe884291	-0.26613286
127	0x3dcc86ac	0.09986624
128	0x3d9199cf	0.07109415
129	0xbe6ef1e8	-0.23334467
130	0xbea0b592	-0.31388527
131	0xbe11c6f0	-0.14236045
132	0x3c73fbdc	0.014891591
133	0xbcaa48b9	-0.02078663
134	0x3e30f320	0.17280245
135	0x3cc06595	0.023485938
136	0x3d845c73	0.06462946
137	0xbe144d2d	-0.14482565
138	0x3cee0901	0.029057028
139	0x3db54d89	0.08852679
140	0xbc45409b	-0.012039329
141	0xbe03be4e	-0.12865564
142	0x3dbef0f2	0.093233004
143	0xbda3e111	-0.080019124
144	0x3d3fdda0	0.046842217
145	0x3cb849d1	0.022496136
146	0x3e35eb1b	0.17765467
147	0xbdabc43f	-0.0838704
148	0xbd016bfd	-0.031597126
149	0x3cf3ef72	0.029777262
150	0x3d5fdfd5	0.054656822
151	0x3cc1ed57	0.023672743
152	0x3da92775	0.08259479
153	0x3d804689	0.062634535
154	0xbd5c84f2	-0.053837724
155	0xbdb307f8	-0.08741754
156	0xbd7e81c8	-0.062135488
157	0x3d71cadf	0.059031364
158	0x3d8dcd68	0.06923944
159	0xbe058889	-0.13040365
160	0xbdc7412d	-0.09729228
161	0xbd8396b8	-0.06425232
162	0x3ccc8f5a	0.0249707
163	0xbe062f9a	-0.13104096
164	0xbde9f958	-0.11424512
165	0x3d547f1e	0.05187904
166	0xbecd4071	-0.40088227
167	0xbe88c409	-0.26712063
168	0xbe3b3562	-0.18282083
169	0x3e4885c4	0.19582278
170	0xbe47595c	-0.19467682
171	0xbdc34547	-0.09534698
172	0xbdc880d4	-0.09790197
173	0x3cc99fe9	0.024612384
174	0xbc8734ba	-0.016504634
175	0x3e420c56	0.18950018
176	0x3be724d5	0.0070539513
177	0xbe339cdb	-0.17540304
178	0xbe4eed61	-0.2020774
179	0xbc828ce5	-0.015936324
180	0xbdbe1508	-0.09281355
181	0xbec931dc	-0.39295852
182	0xbcd985b9	-0.026553022
183	0xbe9f0a88	-0.31062722
184	0x3ea0283b	0.31280693
185	0xbdf0488a	-0.11732586
186	0xbdaa147d	-0.08304689
187	0xbe677f3a	-0.22607127
188	0xbe736e60	-0.23772573
189	0xbd44304a	-0.047897615
190	0x3d7c684b	0.0616229
191	0xbc17f603	-0.009274962
192	0xbc5d71ee	-0.0135159325
193	0xbe8d7406	-0.2762758
194	0x3ce66bf6	0.028127652
195	0xbd88d631	-0.06681479
196	0xbd47d05c	-0.04878269
197	0x3d4b3506	0.049611114
198	0x3e4c66ff	0.19961165
199	0x3e4b90e2	0.19879487
200	0x3e50ee2a	0.20403352
201	0x3e5294a9	0.20564522
202	0xbea8d629	-0.3297589
203	0x3e8f57f5	0.27996793
204	0x3c789185	0.015171413
205	0x3d192049	0.037384305
206	0x3e00844c	0.12550467
207	0x3e94a0d0	0.2902894
208	0x3e839fb0	0.2570777
209	0x3d4da559	0.050206516
210	0x3e4c5b65	0.19956739
211	0xbc9ac997	-0.018894954
212	0x3e470979	0.19437207
213	0x3d617e76	0.055052243
214	0x3e9f6058	0.31128192
215	0x3e26dc58	0.16294992
216	0x3ece4567	0.40287325
217	0x3dca36cd	0.09873734
218	0x3d894b48	0.06703812
219	0x3d8599f5	0.065235056
220	0xbe17d31c	-0.14826626
221	0x3e1d68b9	0.1537198
222	0x3e5851d2	0.21124962
223	0x3d390f79	0.04518077
224	0x3e4e2f61	0.20135261
225	0x3db1bc84	0.086785346
226	0xbd70705c	-0.058700904
227	0x3e1fa956	0.1559194
228	0xbcf5b001	-0.029991152
229	0xbbcc21cb	-0.0062296144
230	0x3e03c349	0.12867464
231	0x3e3283df	0.17433117
232	0x3e80b139	0.2513521
233	0x3e019c57	0.12657295
234	0xbca07416	-0.019586604
235	0x3d03f7b1	0.03221864
236	0xbde34e3a	-0.11098905
237	0xbd85dd99	-0.06536407
238	0x3c1d3092	0.0095941
239	0x3c58e513	0.013238209
240	0x3c9ecd5a	0.019385029
241	0x3d1c0a40	0.038095713
242	0x3c3d975e	0.011571733
243	0xbe1b1d08	-0.15147793
244	0xbd06b8a4	-0.03289093
245	0x3ac34b58	0.0014899774
246	0x3d9b6e07	0.075893454
247	0x3e1b3b6f	0.15159391
248	0xbda090d4	-0.07840124
249	0x3d88b11f	0.06674408
250	0x3c8f0511	0.01745847
251	0xbcc446f8	-0.023959622
252	0x3d8a3057	0.06747501
253	0xbd4d6588	-0.050145656
254	0xbd9a7e46	-0.07543616
255	0x3cbfb476	0.02340148

initial.0.bias f4 [8]
0	0xbc9fb561	-0.019495668
1	0xbd407652	-0.04698784
2	0x3c8f4a91	0.01749161
3	0x3e147ead	0.14501448
4	0x3e2bda51	0.167825
5	0x3d11e9b9	0.035623286
6	0x3da4fce0	0.080560446
7	0xbdab76a0	-0.08372235

initial.2.weight f4 [8, 8, 1, 1]
0	0x3ea6fb0a	0.32613403
1	0x3d88651d	0.06659911
2	0x3ec43724	0.3832332
3	0xbf034c59	-0.5128837
4	0xbda71ee5	-0.081601895
5	0x3d9bf59e	0.07615207
6	0x3e83f5ff	0.25773618
7	0x3e4d2f5c	0.20037597
8	0x3de45ef3	0.111509226
9	0x3e3458ec	0.17612046
10	0x3eade00b	0.33959994
11	0x3dd810fa	0.10550113
12	0xbcbb43e3	-0.02285952
13	0x3c9ad118	0.018898532
14	0xbe4bb830	-0.1989448
15	0xbdc8f0e6	-0.09811573
16	0x3c828dfc	0.015936844
17	0xbdc5b6c5	-0.09654001
18	0x3e418e23	0.18901877
19	0xbd6c179f	-0.057639714
20	0xbd87aefd	-0.06625173
21	0xbea27855	-0.3173243
22	0x3e435435	0.19075091
23	0xbeae46b0	-0.34038305
24	0x3ce1e65e	0.027575668
25	0xbe56e905	-0.20987327
26	0x3e0bc600	0.1364975
27	0xbd785fac	-0.060638115
28	0x3e010d23	0.12602668
29	0xbe06cedb	-0.13164847
30	0xbe1a21ef	-0.15052007
31	0xbd8b7070	-0.06808555
32	0xbe69f19a	-0.2284607
33	0x3d9632d2	0.07333912
34	0xbd2018c5	-0.039086122
35	0xbe7ffe36	-0.24999318
36	0x3ecf0d9f	0.4044008
37	0xbd0cd96b	-0.034387033
38	0x3d604052	0.05474884
39	0x3effbe12	0.499497
40	0x3e977531	0.29581597
41	0xbf2743b4	-0.6533768
42	0x3eb0000b	0.34375033
43	0x3ea878b1	0.3290458
44	0x3e57620e	0.21033499
45	0x3e6e054a	0.23244205
46	0xbd65d961	-0.05611551
47	0x3d1039f3	0.035211515
48	0xbe3abf67	-0.18237077
49	0xbdcf41c3	-0.10119965
50	0xbe4e31cc	-0.20136184
51	0xbe3c5a6a	-0.18393865
52	0xbe3ec160	-0.18628454
53	0x3e8fb2c9	0.2806609
54	0xbeadc1b2	-0.3393684
55	0xbde5558a	-0.11197956
56	0xbe9a129e	-0.3009233
57	0x3ea5323b	0.32264885
58	0xbddccbfd	-0.10781095
59	0x3daf26ae	0.085522994
60	0x3db6d93f	0.08928155
61	0x3e8713a3	0.2638217
62	0xbe70e410	-0.23524499
63	0x3e630c4a	0.22172657

initial.2.bias f4 [8]
0	0xbe8841f4	-0.26612818
1	0x3db81dbb	0.08990046
2	0x3eb8873a	0.3604067
3	0x3ec21218	0.3790443
4	0x3ea3b641	0.31974986
5	0xbe9b2720	-0.30303288
6	0x3eb6bd83	0.3569146
7	0xbeb89498	-0.36050868

down1.0.weight f4 [8, 8, 1, 1]
0	0xbc9249c9	-0.01785745
1	0x3e0d017b	0.13770096
2	0x3eba5da5	0.3639957
3	0xbc89d643	-0.0168258
4	0x3bd67953	0.0065452247
5	0x3c9f4a2d	0.01944455
6	0xbe757906	-0.23971948
7	0xbd92ec98	-0.07174033
8	0xbd2119b1	-0.03933114
9	0xbe2b3bd5	-0.16722043
10	0x3e111d80	0.1417141
11	0xbeb3dc30	-0.35128927
12	0xbeb1a9f4	-0.34699976
13	0xbc049016	-0.008090993
14	0x3e4734dc	0.19453758
15	0xbe1368d7	-0.14395462
16	0x3c1d5f92	0.009605305
17	0xbea3ef62	-0.32018572
18	0xbe92e1b5	-0.28687826
19	0xbe611195	-0.21979363
20	0x3e863dc5	0.26219
21	0xbe0b01a3	-0.13574843
22	0xbe77de1d	-0.24205823
23	0xbe94bb9b	-0.29049382
24	0xbf134868	-0.5753236
25	0xbe2b2877	-0.16714655
26	0x3e9922e1	0.29909423
27	0xbd2c19fe	-0.042016976
28	0x3bad6a46	0.00529221
29	0xbf343614	-0.70395017
30	0x3e4cf735	0.20016177
31	0xbe9166a2	-0.28398615
32	0x3ec3c5ed	0.38236943
33	0x3ed14aab	0.4087728
34	0xbe34f633	-0.17672043
35	0xbd09feb6	-0.033690177
36	0x3e16d7c4	0.14730746
37	0xbe7dcc3b	-0.24784939
38	0x3e880b93	0.2657133
39	0xbea0c4ff	-0.31400296
40	0xbe9477e5	-0.28997722
41	0x3dcb39fc	0.09923169
42	0x3e2ee75d	0.17080446
43	0x3d82bbc7	0.06383472
44	0xbeb3da28	-0.35127378
45	0x3e9a5770	0.30144835
46	0x3f1ad5b0	0.6048231
47	0x3d15b8ba	0.036553122
48	0xbdc1a89e	-0.09455989
49	0x3df18b5f	0.11794161
50	0x3ec1adb2	0.37827832
51	0x3dec45fa	0.115367845
52	0xbea0d6db	-0.31413922
53	0x3e9fbdc6	0.31199473
54	0xbeb86437	-0.36013958
55	0xbd6be065	-0.057587046
56	0xbefa5652	-0.48893982
57	0xbeaaf917	-0.33393165
58	0x3ecb5044	0.39709675
59	0x3dcb589b	0.099290095
60	0x3e9d80f1	0.30762437
61	0xbf282f29	-0.6569696
62	0xbed084c2	-0.40726286
63	0xbf530c0f	-0.82440275

down1.0.bias f4 [8]
0	0x3d8f033d	0.069830395
1	0xbe753c0e	-0.2394869
2	0x3db05f92	0.086119786
3	0x3dd28403	0.102790855
4	0x3d444ff1	0.0479278
5	0xbbeeb4dd	-0.007284744
6	0x3e3d09d2	0.18460777
7	0xbd898d69	-0.06716425

down1.2.weight f4 [12, 8, 3, 3]
0	0x3d449c9d	0.04800092
1	0xbbece87d	-0.007229863
2	0xbdf01750	-0.117231965
3	0xbdc970ed	-0.09835992
4	0x3db821b6	0.08990805
5	0x3d718b1e	0.058970563
6	0xbcb4d8be	-0.022076007
7	0xbdd8126d	-0.105503894
8	0x3d5a3628	0.053274304
9	0x3d0a8354	0.03381665
10	0x3db92c4b	0.09041651
11	0x3cae5a70	0.021283358
12	0x3db84957	0.089983635
13	0xbdd8894b	-0.105730616
14	0xbd1a833b	-0.037722807
15	0x3d8b8fb8	0.068145216
16	0xbda33855	-0.07969729
17	0x3d88b220	0.066746
18	0xbd25b90b	-0.040459674
19	0xbdd64afa	-0.104635194
20	0xbda5643a	-0.08075757
21	0xbdc01c5b	-0.093804084
22	0x3da759d5	0.08171431
23	0x3ddca591	0.10773767
24	0xbd362fc5	-0.04447915
25	0xbdcb583f	-0.09928941
26	0x3cf80bb1	0.030279012
27	0xbc526f76	-0.012843957
28	0xbdb3ab59	-0.08772916
29	0x3bdac7cf	0.006676651
30	0xbda02b87	-0.07820802
31	0x3d727e59	0.059202526
32	0xbdecf88c	-0.11570844
33	0x3d192b80	0.037395
34	0x3dac969e	0.084271654
35	0x3d283f7b	0.041076165
36	0x3dec55b5	0.11539785
37	0xbca45944	-0.020062096
38	0xbd9bdd2b	-0.07610544
39	0xbd8f7fc9	-0.07006795
40	0xbda79a63	-0.08183744
41	0xbdebeb74	-0.115195185
42	0xbcaff01c	-0.021476798
43	0xbdb5a003	-0.088684104
44	0x3d9cce59	0.07656545
45	0xbdc76a8b	-0.09737118
46	0xba8ded08	-0.0010828087
47	0x3de1925d	0.11014245
48	0x3d27db4e	0.04098063
49	0x3d783fd7	0.060607757
50	0x3c50d50b	0.012746106
51	0x3bfb6cde	0.00767289
52	0x3dc552b5	0.09634916
53	0x3dc7df4d	0.09759388
54	0x3ae78cc3	0.0017665852
55	0xbdd7174d	-0.10502491
56	0xbd9351bf	-0.07193326
57	0xbde12f45	-0.10995344
58	0xbda9aa99	-0.08284492
59	0xbd9e8537	-0.077402525
60	0xbdef9144	-0.11697629
61	0xbdf0efb1	-0.117644675
62	0x3d9be4d4	0.07612005
63	0x3b5de220	0.0033856705
64	0xbdc24e70	-0.09487617
65	0x3d3ea6e9	0.046545897
66	0x3dba7234	0.09103814
67	0xbdad749c	-0.08469507
68	0xbc5b09a8	-0.013369001
69	0x3d4e14fd	0.050312985
70	0x3d769e04	0.06020929
71	0xbc48d1d8	-0.012257062
72	0x3d5fbd34	0.054623798
73	0x3d9b933f	0.07596444
74	0xbcdd0a73	-0.026982522
75	0xbe1120c7	-0.1417266
76	0x3d8f2fc3	0.06991532
77	0xbc779b04	-0.015112642
78	0xbcb83a84	-0.02248884
79	0x3b9f5ed0	0.0048635975
80	0xbd8bffc6	-0.06835894
81	0xbd207ce5	-0.03918161
82	0x3dcf1755	0.10111872
83	0x3dcc16cb	0.09965285
84	0xbc1cec54	-0.009577829
85	0x3dafb3a3	0.08579185
86	0x3c683af2	0.01417421
87	0x3d2509cf	0.040292557
88	0x3bee116a	0.0072652595
89	0xbd27a22a	-0.040926136
90	0x3e3f04f7	0.18654238
91	0x3c93ee64	0.01805801
92	0xbe6d0497	-0.23146282
93	0x3dfd662f	0.123730056
94	0xbc64b0a1	-0.013958127
95	0xbe098201	-0.13428499
96	0xbdcdfbf0	-0.10057819
97	0xbca15c2f	-0.019697277
98	0xbe4ac533	-0.19801788
99	0xbdd922cb	-0.10602339
100	0x3db4f25e	0.0883529
101	0x3da84e72	0.08218087
102	0x3da879a5	0.08226327
103	0x3dc3655d	0.09540818
104	0x3d0a4a36	0.03376218
105	0xbde44709	-0.111463614
106	0xbd1396b2	-0.036032386
107	0x3d5d9494	0.054096773
108	0xbe1001c4	-0.14063174
109	0x3c00ba60	0.007856935
110	0xbd2d6550	-0.042332947
111	0xbe1c2d17	-0.15251575
112	0xbe872483	-0.26395044
113	0xbd9d4e15	-0.076809086
114	0xbe295df7	-0.16539751
115	0xbcbe2ebb	-0.023215642
116	0xbc18cbf8	-0.009325974
117	0xbe032c19	-0.1280979
118	0x3dbfe63d	0.09370086
119	0x3e473505	0.19453819
120	0xbdd7dd34	-0.10540238
121	0xbd419aa4	-0.047266617
122	0x3cd5fce7	0.02612157
123	0x3cc1e221	0.023667397
124	0x3cd9b405	0.026575098
125	0xbd9e704a	-0.07736261
126	0xbd912765	-0.07087592
127	0x3dae48b8	0.08509964
128	0x3d01e9ec	0.031717226
129	0x3bdb42c9	0.006691311
130	0x3e173fae	0.14770386
131	0x3e0006e8	0.12502635
132	0xbc7c1fd2	-0.015388446
133	0x3d6c0f18	0.057631582
134	0x3ded5b4c	0.11589679
135	0xbdfa478e	-0.12220679
136	0xbd910c9d	-0.07082484
137	0x3e06d047	0.13165389
138	0xbc70e47a	-0.014702911
139	0x3dfa4f99	0.12222213
140	0x3d1e8222	0.038698323
141	0x3dac37cb	0.08409079
142	0x3e232c6c	0.15934914
143	0x3e434313	0.19068556
144	0xbd73bf02	-0.05950833
145	0x3b806b5c	0.0039190482
146	0x3d881d13	0.066461705
147	0xbe18138c	-0.14851207
148	0xbda8223f	-0.08209657
149	0xbdf9dd6d	-0.12200437
150	0xbda85bd8	-0.08220643
151	0xbe0bba84	-0.13645369
152	0xbe4f67b5	-0.20254405
153	0x3ddd794f	0.108141534
154	0xbd2abb7c	-0.041682705
155	0xbdb5f0f2	-0.08883847
156	0xbdc9aff5	-0.09848014
157	0xbdd2f455	-0.10300509
158	0xbd6fa6a2	-0.058508523
159	0x3d5db8c6	0.05413129
160	0xbd0c3bc6	-0.034236692
161	0xb973fb37	-0.0002326787
162	0x3e296c19	0.16545142
163	0xbdb1cd53	-0.086817406
164	0xbe553abd	-0.20823188
165	0x3e5dd5cf	0.21663593
166	0xbde56349	-0.11200578
167	0x3d39d9de	0.04537379
168	0xbcfb40c1	-0.030670526
169	0x3d24328f	0.04008728
170	0x3dda3999	0.10655517
171	0xbcd4e560	-0.02598828
172	0xbdaba5a6	-0.08381204
173	0xbd4fd1bf	-0.05073714
174	0x3c32ceff	0.0109136095
175	0x3d83bfe5	0.06433085
176	0x3e15e321	0.14637424
177	0xbd53bf78	-0.05169627
178	0x3df3512b	0.11880716
179	0xbcadb03a	-0.021202195
180	0xbb7a3d50	-0.0038183518
181	0x3e53bcf0	0.20677543
182	0x3e2a8ad5	0.16654523
183	0x3e9af935	0.30268255
184	0x3dd5ddbe	0.104426846
185	0x3e5ee0d6	0.21765456
186	0x3e7a6ca1	0.24455501
187	0x3e57eae3	0.21085696
188	0x3e58138e	0.2110121
189	0xbdf36e79	-0.11886305
190	0xbe5b9355	-0.21442921
191	0xbda0d2df	-0.078527205
192	0x3d4aa871	0.049477044
193	0x3b1f6617	0.0024322325
194	0x3e0c2c3a	0.13688746
195	0xbe26444f	-0.16236995
196	0xbcc14b74	-0.02359555
197	0xbc9f56d4	-0.019450583
198	0xbe0d4964	-0.13797528
199	0xbca4809c	-0.020080857
200	0x3d1c22cd	0.038119126
201	0xbd330aa2	-0.043711312
202	0xbd24a708	-0.040198356
203	0x3bc3e977	0.005978759
204	0xbd9a8408	-0.07544714
205	0xbdbf769b	-0.09348794
206	0xbe115964	-0.14194256
207	0xbd89072e	-0.066908225
208	0x3d094ea0	0.03352225
209	0xbd65f4bf	-0.05614161
210	0x3de6e0c9	0.11273343
211	0x3ce77704	0.028254993
212	0x3db1d8b7	0.08683913
213	0xbddbe5cf	-0.10737192
214	0xbd9c18b0	-0.07621896
215	0xbcce13b2	-0.025155876
216	0xbe40c353	-0.1882451
217	0xbd349d4f	-0.044095334
218	0x3e330e96	0.17486033
219	0x3da05f05	0.078306235
220	0xbc51f354	-0.012814362
221	0x3e268976	0.16263375
222	0x3dcfdfd6	0.10150115
223	0x3e2839ea	0.16428342
224	0x3e690958	0.2275747
225	0x3d53d2ae	0.05171459
226	0xbda2766c	-0.079327434
227	0xbd5d7473	-0.054066133
228	0x3dc98f5b	0.09841796
229	0x3d71f3eb	0.05907051
230	0x3c45f457	0.012082181
231	0x3db7a181	0.08966351
232	0x3c92ccf5	0.017919997
233	0xbd7a54a1	-0.061115865
234	0xbd94b14d	-0.0726038
235	0xbd2e6934	-0.0425808
236	0xbd0f664f	-0.03500968
237	0xbbe5dd5f	-0.007014915
238	0xbe71060a	-0.2353746
239	0x3c5cb60b	0.013471137
240	0xbe425b53	-0.1898015
241	0xbe9779a3	-0.2958499
242	0xbd088218	-0.033327192
243	0xbe17dbba	-0.14829913
244	0x3a4768c2	0.00076068577
245	0xbd0fa3c4	-0.03506829
246	0xbc8c397e	-0.017117258
247	0x3e412c42	0.1886454
248	0x3de250c7	0.11050563
249	0x3dea4f73	0.11440935
250	0x3d6980cd	0.0570076
251	0x3d66c15b	0.056336742
252	0xbdf31485	-0.11869148
253	0xbe0832dd	-0.13300653
254	0xbe1d93df	-0.1538844
255	0xbcd7b6d5	-0.026332298

down1.2.bias f4 [12]
0	0xbda1640d	-0.07880411
1	0x3ca9ea06	0.020741474
2	0x3d507a90	0.050898135
3	0x3dc93931	0.098253615
4	0x3b41fa32	0.002959859
5	0xbd1bc6d8	-0.03803143
6	0x3db23db3	0.087031744
7	0x3d90195a	0.070360854
8	0xbd5fb6e8	-0.054617792
9	0x3dcafc4c	0.09911403
10	0xbdcf9544	-0.10135892
11	0xbd82bab5	-0.06383268

down2.0.weight f4 [12, 12, 1, 1]
0	0xbe7b0502	-0.24513629
1	0xbe65372e	-0.2238433
2	0x3d00af88	0.0314174
3	0xbca9d183	-0.020729786
4	0xbd8cb752	-0.06870903
5	0x3e576410	0.21034265
6	0xbeab1ccd	-0.3342041
7	0x3e4037e6	0.18771324
8	0x3c5e9c71	0.013587103
9	0x3e05cc4c	0.13066214
10	0xbc8fea9e	-0.017567929
11	0xbe0c7a77	-0.13718592
12	0xbdf615b5	-0.12015859
13	0xbecf1726	-0.40447348
14	0x3d004e57	0.03132471
15	0x3d075ab1	0.033045474
16	0x3ef3530f	0.47524306
17	0x3e0c8eab	0.13726299
18	0xbe962f86	-0.29333133
19	0x3e26395a	0.16232815
20	0x3ee45b7b	0.44601044
21	0xbdaabeaa	-0.083371475
22	0x3ecab9d9	0.39594916
23	0x3d17d914	0.037072256
24	0xbe15615d	-0.14587922
25	0x3ded4684	0.115857154
26	0xbe2abe97	-0.16674267
27	0xbe25b280	-0.16181374
28	0x3e6083de	0.21925303
29	0xbd7c3cf2	-0.06158156
30	0x3e53d907	0.20688258
31	0x3e2f3be1	0.17112686
32	0x3dc98be6	0.09841137
33	0x3d4f3eb3	0.050596904
34	0xbcd8a030	-0.02644357
35	0xbe7c6996	-0.24649653
36	0x3dbc248b	0.091866575
37	0xbd8781a8	-0.06616527
38	0x3d96c5a2	0.07361914
39	0xbe8407c6	-0.2578718
40	0xbe90a7ae	-0.2825293
41	0x3de42f2a	0.11141808
42	0xbda70dcc	-0.081569284
43	0xbe33e3fd	-0.1756744
44	0xbd83a944	-0.06428769
45	0xbdcb0e78	-0.09914869
46	0x3e805646	0.2506582
47	0x3e777189	0.24164404
48	0x3dad7b63	0.084708
49	0xbe2b7313	-0.16743116
50	0x3dd47674	0.10374156
51	0xbd119226	-0.03553977
52	0x3ec9fd1e	0.39450926
53	0xbe81108f	-0.25207946
54	0xbe7adb57	-0.24497734
55	0x3e979b11	0.29610494
56	0xbe14abd5	-0.14518674
57	0x3e03eaf1	0.12882592
58	0xbe17a148	-0.14807618
59	0x3e77cafa	0.24198523
60	0xbdd18e01	-0.10232163
61	0x3e0c5136	0.13702855
62	0xbd10d532	-0.03535957
63	0x3e0d8ce3	0.13823275
64	0x3df6a3fa	0.12042995
65	0xbe65f244	-0.22455698
66	0x3ea1c2c4	0.31593907
67	0x3dfdf7ed	0.12400804
68	0x3bd4f7e1	0.006499276
69	0x3e1c5e06	0.15270242
70	0x3ee1a075	0.44067731
71	0xbe6cf736	-0.23141178
72	0xbdf03686	-0.117291495
73	0xbec480ed	-0.38379613
74	0x3e62518b	0.22101419
75	0xbea8d6d9	-0.32976416
76	0xbdbf4480	-0.09339237
77	0xbd23d69b	-0.039999586
78	0x3e4c745f	0.19966267
79	0x3ebdbc8f	0.3705792
80	0xbda446e9	-0.080213375
81	0x3d3d665c	0.046240196
82	0x3dd4fef4	0.10400191
83	0x3d5f87d7	0.054572906
84	0x3e7d1de5	0.24718435
85	0x3c9e4b91	0.019323142
86	0x3e14b9f8	0.14524066
87	0xbe23d311	-0.15998484
88	0xbe144dae	-0.14482757
89	0x3e995f97	0.29955742
90	0xbec268ee	-0.3797068
91	0x3e07b7f9	0.13253774
92	0x3ea12d4c	0.3147987
93	0x3e4e28e3	0.20132785
94	0xbebbd0f6	-0.36682862
95	0x3e8606e1	0.26177123
96	0x3dfac255	0.12244097
97	0x3e9e49c1	0.30915645
98	0xbdf7fec9	-0.12109143
99	0x3df221d8	0.118228614
100	0xbcc6911f	-0.024239121
101	0xbde89b8f	-0.113577954
102	0x3e243b17	0.16038166
103	0xbed50a27	-0.41609308
104	0x3c968174	0.018372275
105	0xbcb3eb88	-0.021962896
106	0x3ee5cded	0.4488367
107	0xbe0f708a	-0.14007774
108	0xbd3e5768	-0.046470076
109	0xbe81e4be	-0.2536983
110	0x3ecbc5ce	0.3979935
111	0xbca86402	-0.0205555
112	0x3d0355e2	0.032064326
113	0x3eada8fd	0.3391799
114	0xbe381d3e	-0.17979905
115	0x3e620c05	0.22074898
116	0xbdb43eb3	-0.088010214
117	0xbdcc57e8	-0.09977704
118	0xbeb63310	-0.35585833
119	0x3c80852e	0.015688505
120	0xbd983615	-0.0743219
121	0x3e460e3d	0.19341369
122	0x3e9c67cb	0.30547938
123	0x3e93977c	0.2882651
124	0xbe9a95ef	-0.30192515
125	0x3ce5154e	0.02796426
126	0x3e21c393	0.15797262
127	0xbe4bce28	-0.19902861
128	0x3e931cb9	0.2873285
129	0x3e230108	0.15918362
130	0x3ee544a5	0.44778934
131	0x3e8a4de6	0.27012557
132	0xbdabc1e3	-0.0838659
133	0xbe669f0d	-0.2252161
134	0x3ead811f	0.33887574
135	0xbd3dd2de	-0.046343677
136	0x3e4d142a	0.20027223
137	0x3d2a3082	0.041550167
138	0x3d8262f9	0.06366534
139	0x3de3c782	0.111220375
140	0xbbcc7e16	-0.0062406166
141	0x3e439473	0.19099598
142	0xbd8d2889	-0.06892497
143	0x3e8ef94e	0.2792458

down2.0.bias f4 [12]
0	0x3df557d5	0.11979643
1	0xbdaee20b	-0.08539208
2	0xbe92d784	-0.2868005
3	0xbe33adfd	-0.1754684
4	0x3de5d58f	0.11222374
5	0x3e80d3b8	0.2516153
6	0x3e4f4e61	0.20244743
7	0x3e0a2ef8	0.1349448
8	0x3e944b05	0.28963485
9	0x3e67b07c	0.22625917
10	0x3ce6343b	0.028101077
11	0xbd3b39f4	-0.045709565

down2.2.weight f4 [20, 12, 3, 3]
0	0xbd62ec34	-0.055401042
1	0xbce92d75	-0.028464058
2	0xbd9c199b	-0.07622071
3	0xbd9b4fd0	-0.075835824
4	0x3d51348e	0.05107551
5	0x3c858ab2	0.016301487
6	0x3ca56d04	0.020193584
7	0xbcc41ad9	-0.023938583
8	0x3d866096	0.06561391
9	0x3b8935fe	0.0041873446
10	0xbda005da	-0.07813616
11	0x3da8b8e4	0.0823839
12	0x3db26be2	0.08711983
13	0x3da7901b	0.08181783
14	0xbd8b4dac	-0.06801924
15	0xbc0ab53b	-0.00846606
16	0xba6257c1	-0.0008634292
17	0x3c2a9fab	0.010414044
18	0x3bce59ea	0.0062973397
19	0x3d064aa9	0.032786045
20	0x3bbe5484	0.005808415
21	0xbba59dc4	-0.0050542075
22	0x3d389ddb	0.045072418
23	0xbd411db6	-0.047147475
24	0x3cee48d5	0.029087463
25	0xbdbb08a2	-0.09132506
26	0x3d0d4f87	0.03449967
27	0xbd2be447	-0.04196575
28	0x3c67a710	0.014138952
29	0xba7e99d8	-0.00097122556
30	0xbce381bd	-0.027771825
31	0x3d0d4866	0.034492873
32	0x3d6b1169	0.05738965
33	0xbd0375e0	-0.032094836
34	0xbd62865e	-0.055303924
35	0x3d301d08	0.042996436
36	0x3d888d16	0.06667535
37	0xbd1d137a	-0.038348652
38	0x3cc6400e	0.024200466
39	0xbd32503d	-0.043533552
40	0x3cef1be2	0.0291881
41	0xbdb3a1ac	-0.08771071
42	0xbce1155c	-0.027476005
43	0xbd7d5077	-0.061844315
44	0x3d348c11	0.04407889
45	0xbcdaa97d	-0.026692146
46	0x3c0b10da	0.008487904
47	0xbc0ab20c	-0.008465301
48	0xbd0bfb14	-0.034174994
49	0xbd2a188e	-0.041527323
50	0xbdd0437e	-0.10169123
51	0x3c70c8ba	0.014696294
52	0xbd0b2d83	-0.03397895
53	0xb8888721	-6.510155e-05
54	0x3da09b7f	0.078421585
55	0x3d8a57ba	0.06755014
56	0x3dba3d6a	0.09093745
57	0xbc3145e3	-0.010819885
58	0x3ce957e0	0.028484285
59	0x3d89086c	0.066910595
60	0xbd2e53b2	-0.042560287
61	0xbd95c35d	-0.07312653
62	0xbda8806a	-0.08227618
63	0xbd8eb35b	-0.06967803
64	0xbc843cb4	-0.016142227
65	0xbc674f6b	-0.014118056
66	0x3d1d7288	0.038439304
67	0xbd9fe85f	-0.07807993
68	0x3d8f5211	0.06998075
69	0xbcb58bb2	-0.022161338
70	0x3ca8e21b	0.020615628
71	0xbc6a644f	-0.014306142
72	0xbd752ee9	-0.05985919
73	0xbd372674	-0.044714406
74	0xbbfd807d	-0.0077362643
75	0x3c8ba7ba	0.017047752
76	0x3d48d219	0.04902849
77	0xbdb7ed8e	-0.08980857
78	0xbd82439a	-0.0636055
79	0x3d5a10be	0.053238623
80	0x3a0cfbe8	0.0005378113
81	0x3ce1fd12	0.027586494
82	0xbd89b475	-0.067238726
83	0xbc915101	-0.017738821
84	0xbd0c7b7c	-0.03429745
85	0xbd136a12	-0.03598983
86	0xbdbf4960	-0.09340167
87	0xbd1ec385	-0.03876068
88	0xbcfc88ec	-0.030827008
89	0x3d98e5ca	0.07465704
90	0x3db3b1bb	0.08774134
91	0x3c26e586	0.010186559
92	0xbdc1325d	-0.09433434
93	0xbde62df5	-0.11239234
94	0x3d93badc	0.07213375
95	0x3d9b674f	0.07588064
96	0x3c453a4d	0.012037826
97	0x3c617767	0.013761378
98	0x3d06fd51	0.032956425
99	0xbcbeeaa9	-0.023305254
100	0xbdbeea17	-0.09321993
101	0xbd8eacc8	-0.06966549
102	0x3cc6c337	0.024263008
103	0xbd3cf555	-0.046132404
104	0x3d18c041	0.037292723
105	0x3d2fd4db	0.042927604
106	0xbd01e83c	-0.031715617
107	0xbd18a049	-0.037262235
108	0xbcfc53b1	-0.030801626
109	0x3c0b81bb	0.008514817
110	0xbdba8e65	-0.09109191
111	0x3d3f32fa	0.046679474
112	0xbd8aa41c	-0.06769583
113	0x3cfea37f	0.03108382
114	0x3d13b60d	0.03606229
115	0xbd741915	-0.059594233
116	0x3d2f5f8f	0.04281574
117	0xbc70125c	-0.014652815
118	0x3c2c5bda	0.010519946
119	0xbd4bd200	-0.04976082
120	0xbd8e66bf	-0.06953191
121	0x3dc237ef	0.09483325
122	0x3d12edf6	0.03587147
123	0x3ce3df60	0.027816474
124	0xbcf1abb3	-0.029500818
125	0x3bf10990	0.0073558763
126	0xbd051f07	-0.032500293
127	0x3daa4eea	0.08315833
128	0x3c350c49	0.011050292
129	0x3c98c7cd	0.01864996
130	0x3cac2211	0.021012338
131	0x3db63c66	0.08898239
132	0x3c5451df	0.012958973
133	0xbd344036	-0.04400655
134	0xbcbadd42	-0.022810582
135	0xbb6395f5	-0.0034726833
136	0x3cde2513	0.027117288
137	0xbd04ebc8	-0.03245142
138	0xbc66ca27	-0.014086283
139	0xbd39a4c3	-0.045323145
140	0xbce71085	-0.02820612
141	0xbd74c801	-0.05976105
142	0x3da7ca7d	0.081929184
143	0xbdc2e8df	-0.09517073
144	0x3d3156f5	0.04329582
145	0x3d8f34be	0.06992482
146	0x3d47c335	0.04877015
147	0x3db2e8c3	0.08735802
148	0xbd11b0bc	-0.035568938
149	0x3ca160db	0.019699505
150	0x3d11af1f	0.0355674
151	0x3d2b7e67	0.041868594
152	0xbd2fc473	-0.042911958
153	0xbda98efa	-0.08279224
154	0xbc1fc916	-0.0097525325
155	0xbce134b3	-0.02749095
156	0x3b8bb546	0.004263553
157	0x3d19b0c1	0.03752208
158	0xbb496007	-0.0030727403
159	0xbdb66e29	-0.0890773
160	0xbd64c48d	-0.055851508
161	0xbd08e7cc	-0.033424184
162	0xbd5bbe6f	-0.05364841
163	0xbdb337c8	-0.08750874
164	0x3c1e95a7	0.009679235
165	0xbd6269aa	-0.05527655
166	0x3cf0c2df	0.029389797
167	0xbdaf49bf	-0.08558988
168	0xbd381b42	-0.04494787
169	0xbca4ecc9	-0.02013244
170	0x3c983974	0.018582083
171	0x3db697dc	0.089156836
172	0x3d5ed621	0.054403428
173	0xbd9cba86	-0.07652764
174	0x3d5928cc	0.053017423
175	0xbc2fffb4	-0.010742117
176	0x3d28d32c	0.041217014
177	0xbce154e2	-0.027506296
178	0xbd5d27a2	-0.053992875
179	0x3bce87c1	0.006302804
180	0x3d72433e	0.05914616
181	0xbdbd1c72	-0.09233941
182	0x3db038d9	0.08604593
183	0xbd991f51	-0.07476676
184	0x3d115976	0.035485707
185	0x3d76bf59	0.060241077
186	0xbccb9105	-0.024849424
187	0x3cecdda8	0.028914288
188	0xbc2cf63e	-0.010556756
189	0xbd12751a	-0.035756208
190	0x3c49b3b5	0.012310912
191	0x3d51a60b	0.05118374
192	0xbcccd767	-0.025005056
193	0xbdadcbb3	-0.08486118
194	0x3da2b327	0.07944327
195	0x3ceb2af6	0.028707009
196	0x3d99681d	0.07490561
197	0xbd39e0c8	-0.045380384
198	0xbd2e1355	-0.042498905
199	0xbb98c30c	-0.0046619233
200	0x3d51aab1	0.051188175
201	0x3d63422e	0.055483036
202	0x3d925453	0.0714499
203	0xbd21835e	-0.039431922
204	0x3d5b8bcc	0.053600118
205	0x3ce116ed	0.027476752
206	0x3c63468f	0.013871803
207	0x3da695ce	0.08134042
208	0xbc2e3441	-0.0106325755
209	0x3d5992a3	0.05311836
210	0x3d9291ba	0.071567014
211	0xbdc75654	-0.09733263
212	0xbd2d54a4	-0.042317048
213	0xbd2f7b69	-0.042842302
214	0xbdbeb24d	-0.09311352
215	0x3d855d2b	0.06511911
216	0x3df72734	0.12068024
217	0x3dfc5f27	0.12322836
218	0xbdb037cf	-0.08604395
219	0x3ddee0d1	0.10882724
220	0xbc86f67d	-0.016474957
221	0xbd8d3237	-0.06894343
222	0x3d957a9d	0.07298777
223	0x3c91c215	0.01779274
224	0xbd8a3478	-0.06748289
225	0xbdacf362	-0.08444859
226	0xbddc106a	-0.10745318
227	0xbd83aa14	-0.06428924
228	0xbdf3d358	-0.11905545
229	0xbce180f3	-0.027527308
230	0xbcae2cfe	-0.021261688
231	0xbeb47851	-0.35248044
232	0xbe825961	-0.25458816
233	0xbe80c018	-0.25146556
234	0x3c903eea	0.017608125
235	0xbd7c4975	-0.06159349
236	0xbd6b9cff	-0.05752277
237	0xbc9b5105	-0.018959532
238	0xbd8d37f8	-0.06895441
239	0xbd19190e	-0.03737741
240	0x3d8b9cfa	0.0681705
241	0x3d8093be	0.062781796
242	0xbd9dfddb	-0.07714435
243	0xbd803253	-0.062595986
244	0x3c2104ef	0.009827836
245	0xbd101e55	-0.035185177
246	0x3b43ea6b	0.0029894363
247	0xbd91c380	-0.07117367
248	0x3d52c317	0.051455583
249	0xbd5ea1db	-0.054353576
250	0xbc9fb8f2	-0.019497368
251	0xbd62b596	-0.055348955
252	0x3e18cecc	0.14922637
253	0xbc927dbe	-0.017882224
254	0xbd1351a5	-0.035966534
255	0x3dbb4249	0.09143502

down2.2.bias f4 [20]
0	0xbd295065	-0.041336436
1	0xbdc1a05b	-0.094544135
2	0x3dcea2a4	0.10089615
3	0xbb41757b	-0.0029519487
4	0xbc29137e	-0.010319589
5	0x3cc72305	0.02430869
6	0x3c4cb263	0.012493703
7	0x3d2b147a	0.041767575
8	0xbcaeac47	-0.021322383
9	0x3c9e28fa	0.019306649
10	0xbd0b9a12	-0.03408248
11	0x3c4b177a	0.012395734
12	0xbd96a9a0	-0.07356572
13	0xb9794647	-0.00023772671
14	0x3d0e643d	0.034763563
15	0x3d10aede	0.035323016
16	0x3d79eda3	0.061017644
17	0x3d9f50c9	0.077790804
18	0xbd016cb9	-0.031597827
19	0xbd0f86b4	-0.035040572

up1.1.weight f4 [20, 20, 1, 1]
0	0xbe00a21f	-0.12561844
1	0x3e397f94	0.18115073
2	0x3e184a9c	0.14872211
3	0xbe7b8844	-0.245637
4	0xbe531d41	-0.20616628
5	0xbd903ed4	-0.070432335
6	0xbe082969	-0.13297047
7	0xbdbaf9ee	-0.091297016
8	0x3e5b32be	0.21406075
9	0x3e68f8d9	0.22751178
10	0xbe59f1c4	-0.21283633
11	0xbd64eb3a	-0.055888392
12	0xbe5fe78f	-0.21865676
13	0x3e87a9fe	0.2649688
14	0xbd5ee981	-0.054421905
15	0xbdb3e708	-0.087843
16	0xbe91620a	-0.2839511
17	0x3e96c780	0.2944908
18	0xbd8497b6	-0.06474249
19	0x3e1b1967	0.15146409
20	0x3e5ca4d7	0.21547256
21	0xbd945605	-0.072429694
22	0xbd62a5a5	-0.055333752
23	0xbdb39d50	-0.08770239
24	0xbdc81189	-0.097689696
25	0xbcef20e0	-0.02919048
26	0xbdcbd4a6	-0.09952669
27	0xbe5b6338	-0.21424568
28	0x3e45ce4c	0.19316977
29	0x3e8f171c	0.2794732
30	0x3e779215	0.2417682
31	0x3e9ed64e	0.31022877
32	0xbed3bfd6	-0.41357297
33	0xbdfc6ea0	-0.123257875
34	0xbd3eaa99	-0.046549413
35	0x3d08548c	0.033283755
36	0xbd201e89	-0.03909162
37	0x3e1d43df	0.15357922
38	0xb8a243ad	-7.7373676e-05
39	0x3d947ae6	0.072500035
40	0x3d075302	0.033038147
41	0xbe625be5	-0.22105367
42	0x3dd05b51	0.10173667
43	0x3e3a251e	0.18178222
44	0x3e17edbf	0.14836787
45	0xbe5001ff	-0.20313261
46	0xbdfa1673	-0.12211313
47	0xbd7d83b9	-0.0618932
48	0xbe05bdb6	-0.1306065
49	0xbe97d146	-0.2965185
50	0xbe91ff47	-0.28515074
51	0xbe11578f	-0.14193557
52	0xbe2f2341	-0.17103292
53	0x3e1046b2	0.14089468
54	0x3dbea7ed	0.09309373
55	0xbd5cc480	-0.053898335
56	0x3e8de8bc	0.27716625
57	0xbe54c693	-0.20778875
58	0x3d12b601	0.035818104
59	0x3e28b39f	0.1647477
60	0xbdc92311	-0.098211415
61	0x3dccf113	0.10006919
62	0xbd4bfc10	-0.049800932
63	0x3e6cbcaa	0.23118845
64	0x3e5186e5	0.20461614
65	0xbe623dc7	-0.22093879
66	0x3e58a466	0.21156463
67	0x3d936766	0.07197456
68	0x3df96037	0.12176555
69	0x3d878d0e	0.06618701
70	0x3e53c12a	0.20679155
71	0x3de85294	0.113438755
72	0xbcf78d34	-0.030218698
73	0xbd5785d9	-0.05261788
74	0x3d12220f	0.035677012
75	0x3ecd992b	0.4015592
76	0x3c611318	0.013737462
77	0xbe2961bf	-0.16541193
78	0x3e5f80f4	0.21826535
79	0x3dba2f03	0.09090998
80	0x3e00bfad	0.12573119
81	0xbdb79226	-0.089634225
82	0xbe06d756	-0.13168082
83	0xbcbbc282	-0.022919897
84	0x3c8a2769	0.016864495
85	0x3e45df22	0.193234
86	0x3e03ae86	0.12859544
87	0x3d6b79b0	0.057489097
88	0xbe1ac58f	-0.15114425
89	0x3d2daff7	0.04240414
90	0xbeacf9d0	-0.33784342
91	0xbdd7727c	-0.10519883
92	0x3d906a56	0.07051532
93	0x3d7913e0	0.06080997
94	0xbd719006	-0.058975242
95	0x3e9d32f5	0.3070294
96	0xbe000934	-0.1250351
97	0x3e2a9cd1	0.16661383
98	0xbe120e10	-0.14263177
99	0xbd3fd945	-0.046838064
100	0x3e252940	0.16129017
101	0xbcb0f796	-0.021602433
102	0xbe89743d	-0.26846495
103	0xbe73acf0	-0.23796439
104	0xbe05af2d	-0.13055106
105	0x3e17661d	0.14785047
106	0xbe54a10e	-0.20764562
107	0xbd8d326d	-0.068943836
108	0x3b5bda93	0.0033547028
109	0x3e56070f	0.2090113
110	0xbe76d769	-0.2410561
111	0xbe6962fb	-0.22791664
112	0x3e6cc6f4	0.2312277
113	0xbd6980f3	-0.05700774
114	0xbe126d13	-0.14299421
115	0x3d9b6622	0.0758784
116	0xbe34a4e7	-0.1764103
117	0x3df23027	0.118255906
118	0x3e532dff	0.20623015
119	0x3e0177b8	0.12643325
120	0xbcecece6	-0.028921556
121	0x3e56910f	0.20953773
122	0xbe091cee	-0.13389942
123	0xbcac4fc1	-0.021034123
124	0x3e1b7899	0.15182723
125	0x3c288a22	0.01028684
126	0xbe20efc7	-0.15716468
127	0xbdd51bd1	-0.10405696
128	0xbd4e4f14	-0.050368384
129	0xbd834701	-0.06410027
130	0xbd5f577a	-0.054526784
131	0xbe5e0204	-0.21680456
132	0x3bf2c640	0.007408887
133	0xbd286fa4	-0.041122094
134	0x3dd8fdf4	0.10595313
135	0x3eb56862	0.354312
136	0x3d2f8be4	0.04285802
137	0xbe0bc5cf	-0.13649677
138	0xbe54e488	-0.20790303
139	0xbcb0b294	-0.021569528
140	0x3e3beada	0.18351308
141	0xbde84e5c	-0.11343071
142	0x3e945dde	0.28977865
143	0x3e0e0003	0.13867192
144	0xbe5040db	-0.2033724
145	0x3e53f7f7	0.2070006
146	0xbe5fb45c	-0.21846145
147	0xbe899f78	-0.26879478
148	0xbe2f297a	-0.17105666
149	0xbddc61bf	-0.10760831
150	0x3e2a4e95	0.16631539
151	0xbe8a455d	-0.27006045
152	0xbce9eeb4	-0.028556205
153	0x3e5c8257	0.21534096
154	0x3db3607a	0.08758636
155	0x3c937797	0.01800136
156	0x3e321d16	0.17393908
157	0x3db498e9	0.08818228
158	0x3e2f4190	0.17114854
159	0x3d78c138	0.060731143
160	0x3b04d39d	0.0020267733
161	0xbe171ca8	-0.14757025
162	0x3eecf54f	0.46280906
163	0xbe0bda8b	-0.13657586
164	0xbda5c63d	-0.080944516
165	0x3dc5b502	0.09653665
166	0xbd92a704	-0.07160762
167	0x3d850136	0.064943716
168	0x3e39860b	0.1811754
169	0x3c165479	0.009175413
170	0x3d14c56e	0.036321096
171	0xbe5634e8	-0.2091862
172	0x3cc5c1ac	0.024140202
173	0xbefbfdda	-0.4921711
174	0xbd68bd34	-0.056821063
175	0xbe05eef5	-0.13079436
176	0x3e39653d	0.18105026
177	0xbe4921ce	-0.19641802
178	0x3e61374f	0.21993755
179	0xbe08f009	-0.13372816
180	0x3e2487b3	0.1606739
181	0x3e26fcd5	0.16307385
182	0x3e73e27c	0.23816866
183	0x3e33692f	0.17520593
184	0xbdfb8533	-0.12281265
185	0xbee6d800	-0.4508667
186	0x3e057070	0.13031173
187	0x3e0b6d81	0.13615991
188	0x3cd46374	0.02592633
189	0x3dc3c64e	0.09559308
190	0xbdf36aa2	-0.11885573
191	0x3e11ae21	0.14226581
192	0x3d699c11	0.057033602
193	0x3e7158e2	0.23569062
194	0xbd88ae82	-0.0667391
195	0x3de7e4f1	0.11322964
196	0x3d08c623	0.033392083
197	0x3ca9a982	0.02071071
198	0xbd066abd	-0.032816637
199	0xbe4f42e7	-0.20240365
200	0xbdff2f4d	-0.12460194
201	0x3e13cb8d	0.14433117
202	0x3dbccaa8	0.09218341
203	0x3e94a284	0.2903024
204	0x3c05a286	0.008156424
205	0xbec24419	-0.3794258
206	0xbd0ba052	-0.03408844
207	0x3e7efbe4	0.24900776
208	0x3e462b54	0.19352466
209	0xbe3aa39a	-0.18226472
210	0xbc548165	-0.012970303
211	0xbea10f71	-0.31457093
212	0x3e431e1c	0.19054455
213	0x3efd491b	0.49469838
214	0xbd971c43	-0.07378437
215	0xbe8b6204	-0.27223217
216	0x3e38b33c	0.18037122
217	0x3e6b460b	0.22975938
218	0xbdba693c	-0.09102103
219	0xbe52f289	-0.20600332
220	0xbe416e5d	-0.18889757
221	0xbc338799	-0.010957622
222	0x3e27371b	0.16329615
223	0xbe4e021e	-0.20117995
224	0x3e2344f1	0.15944268
225	0x3e95af8d	0.29235497
226	0x3bf5410e	0.0074845618
227	0xbd8aace7	-0.0677126
228	0xbd50a6e2	-0.0509404
229	0x3ddcd118	0.10782069
230	0x3dc7e4f3	0.097604655
231	0x3de54909	0.11195571
232	0xbe1c3a15	-0.15256532
233	0x3e79a47c	0.24379152
234	0xbde3efbf	-0.11129712
235	0x3e65c136	0.22436985
236	0xbde145e2	-0.10999657
237	0x3df2fef9	0.118650384
238	0x3e4c5a45	0.1995631
239	0xbde4b56a	-0.111674145
240	0x3c3615e5	0.0111136185
241	0xbe4e7d90	-0.20165086
242	0xbd6c46c3	-0.05768467
243	0x3de7e0a1	0.113221414
244	0xbdf3f1b1	-0.11911333
245	0x3e052705	0.13003166
246	0x3e14f6ef	0.14547323
247	0x3c952c75	0.018209675
248	0x3e44a864	0.19204861
249	0x3dca1c61	0.09868694
250	0x3d53b9bb	0.0516908
251	0xbe5e66b1	-0.21718861
252	0x3c6e4e5e	0.014545051
253	0xbe32f02d	-0.17474432
254	0xbd56bb7b	-0.05242489
255	0xbdf292cb	-0.11844405

up1.1.bias f4 [20]
0	0x3e61ff63	0.22070079
1	0xbd64a392	-0.055820055
2	0x3e2e93df	0.17048596
3	0xbdc70970	-0.09718597
4	0xbc5f24c4	-0.013619605
5	0x3de631e9	0.11239988
6	0x3da37e20	0.07983041
7	0x3adfefb0	0.0017084982
8	0x3e82b5aa	0.25529224
9	0xbc29d8c3	-0.010366621
10	0xbd900474	-0.07032099
11	0x3e0fc0a6	0.14038333
12	0x3e552e2d	0.20818396
13	0xbdc96489	-0.09833629
14	0xbd9f578b	-0.07780369
15	0x3e600233	0.21875839
16	0x3dab227b	0.08356186
17	0x3db132c0	0.08652258
18	0x3d8a5815	0.067550816
19	0x3dbc4b5a	0.0919406

up1.3.weight f4 [12, 20, 3, 3]
0	0x3d05e840	0.032692194
1	0xbd216c1b	-0.039409738
2	0xbcd0cfec	-0.02548977
3	0x3dac0029	0.08398468
4	0x3d88b089	0.066742964
5	0x3c9cc054	0.019134678
6	0x3dc3cc62	0.09560467
7	0xbcb12e03	-0.021628385
8	0x3d97baac	0.07408652
9	0x3dc7b97f	0.097521774
10	0x3d41599e	0.047204606
11	0xba380270	-0.0007019406
12	0x3de69318	0.11258525
13	0x3c07485c	0.008256998
14	0xbd32c835	-0.043647964
15	0x3d8a969c	0.06767008
16	0xbce08704	-0.02740813
17	0xbc2546dd	-0.010087696
18	0xbe3d0c29	-0.1846167
19	0xbda323bd	-0.07965801
20	0x3d05c754	0.032660797
21	0xbbadd149	-0.0053044898
22	0xbbfadae2	-0.0076554874
23	0x3d6c6057	0.057709064
24	0xbd696205	-0.056978244
25	0xbccb3133	-0.024803733
26	0x3cec2b64	0.028829284
27	0x3d3c0a5f	0.04590833
28	0x3bd89c25	0.0066104108
29	0xbd8f22c6	-0.069890544
30	0x3d7a3837	0.061088767
31	0x3e4b296a	0.19840017
32	0x3de25c21	0.110527284
33	0x3cd44b6d	0.025914872
34	0x3cbdb79e	0.023158845
35	0xbdd6e2d5	-0.104924835
36	0xbd2f6a4a	-0.042825975
37	0x3c951083	0.01819635
38	0x3d8df485	0.06931404
39	0xbd9af04c	-0.07565364
40	0x3cd74d68	0.026282027
41	0x3db012c0	0.08597326
42	0x3c753e5d	0.014968482
43	0x3d8f7e57	0.07006519
44	0x3e2b504e	0.16729853
45	0xbd5f392c	-0.054497883
46	0x3d050b45	0.03248145
47	0x3dd1fc85	0.102532424
48	0xbd851af5	-0.06499282
49	0xbca28195	-0.01983718
50	0x3e1ff475	0.15620597
51	0xbd6e7f1f	-0.0582267
52	0x3cc1aa1b	0.023640683
53	0x3dff9148	0.12478882
54	0xbdda0c11	-0.10646833
55	0xbd9972ed	-0.074926235
56	0xbd0ea77d	-0.034827698
57	0x3bbdd058	0.005792659
58	0x3ddcab05	0.10774807
59	0x3de1a93a	0.110186055
60	0x3dbf6226	0.09344892
61	0x3d66bd17	0.056332674
62	0x3d9a2598	0.07526702
63	0xbd5e4520	-0.05426514
64	0xbd73a5c8	-0.059484273
65	0x3cad4d38	0.021154985
66	0xbd8bdcfa	-0.06829257
67	0xbbef65bd	-0.0073058293
68	0xbcd2f02a	-0.025749285
69	0xbd745ab6	-0.05965682
70	0x3d139801	0.036033634
71	0x3e01a453	0.12660341
72	0x3cda9594	0.026682653
73	0xbceb59e9	-0.028729396
74	0x3b326b3d	0.0027224564
75	0x3cd20e1a	0.02564149
76	0x3d829047	0.06375175
77	0x3dd60774	0.1045064
78	0xbd146223	-0.036226403
79	0x3c9c4e22	0.019080225
80	0x3d068f1f	0.032851335
81	0x3ce368a4	0.027759857
82	0x3d87d485	0.06632332
83	0xbdc85034	-0.097809225
84	0x3db1584c	0.086594194
85	0x3d869336	0.06571047
86	0xbdc5d44b	-0.09659632
87	0x3de90f41	0.113798626
88	0x3ceb290a	0.028706092
89	0xbd7b5799	-0.061362837
90	0xbdd93d26	-0.10607366
91	0xbd411ee2	-0.047148593
92	0xbd1dfc0a	-0.03857044
93	0x3c1ef639	0.009702259
94	0x3dece90f	0.1156789
95	0xbddba378	-0.107245386
96	0x3e20b4f7	0.15694033
97	0x3c153290	0.009106293
98	0xbd84b083	-0.064789794
99	0xbab729e4	-0.0013974276
100	0xbdb7cd7b	-0.08974739
101	0xbd3dcf90	-0.046340525
102	0x3dd56870	0.104203105
103	0x3da98f74	0.08279315
104	0x3d57ed61	0.052716617
105	0x3c10d5d3	0.008840042
106	0x3d8943e3	0.067024015
107	0x3dfe815d	0.12427018
108	0x3d3773d3	0.044788193
109	0x3c2bf316	0.010494968
110	0xba9a15d0	-0.0011755768
111	0x3dbb0f3e	0.091337666
112	0x3d706e43	0.058698904
113	0xbc1aa138	-0.009437852
114	0xbd1b762f	-0.037954506
115	0xbc81760e	-0.015803363
116	0x3da09306	0.078405425
117	0xbe0197d4	-0.12655574
118	0xbc3428fd	-0.0109961005
119	0xbd0de3d4	-0.034641102
120	0xbd8d55f2	-0.069011584
121	0x3d4afad6	0.049555622
122	0x3bdb0b38	0.006684687
123	0xbcfc107e	-0.030769583
124	0x3d39a4fa	0.04532335
125	0x3df14a39	0.11781735
126	0xbdd8abd5	-0.10579649
127	0xbdf6e5ea	-0.120555714
128	0xbd1bd932	-0.03804893
129	0x3c28bd49	0.010299035
130	0xbd2ecb5d	-0.04267441
131	0xbddcd07c	-0.10781953
132	0xbdc742b3	-0.09729519
133	0xbdc182bc	-0.09448764
134	0xbe1f6e7d	-0.15569492
135	0xbddc59f9	-0.107593484
136	0xbc606b38	-0.013697438
137	0xbc7b69ed	-0.015345079
138	0xbd131b06	-0.035914443
139	0x3d514f13	0.0511008
140	0x3d6ed28c	0.058306262
141	0xbc2c6062	-0.010521026
142	0xbd06aaee	-0.032877855
143	0x3b60c499	0.0034296869
144	0x3d33c9c8	0.043893605
145	0xbd5dff55	-0.05419858
146	0xbd058db1	-0.03260583
147	0xbbc9b42c	-0.0061555114
148	0x3bb897b2	0.005633318
149	0xbd136c10	-0.03599173
150	0xbd2a1a94	-0.041529253
151	0x3bd469dc	0.006482346
152	0x3aff559f	0.0019480473
153	0x3d68ce51	0.056837384
154	0x3df54ab3	0.11977138
155	0x3d27d0e9	0.040970717
156	0x3dddcd58	0.10830182
157	0x3e0c1fed	0.13684054
158	0x3de223f2	0.11042012
159	0x3e12d4d1	0.14338996
160	0x3d209138	0.03920099
161	0x3cc01cf2	0.023451302
162	0x3d04557f	0.032308098
163	0x3cab7676	0.02093051
164	0xbce992e0	-0.028512418
165	0x3cdd835c	0.027040176
166	0x3d3b4b52	0.045726128
167	0x3db4c2fc	0.08826253
168	0x3c71350f	0.014722123
169	0x3cfd247f	0.030901192
170	0xbc93c9d6	-0.018040579
171	0x3c8ca59c	0.017168812
172	0x3b0f27e4	0.0021843845
173	0xbdc4e769	-0.096144505
174	0x3c229ec5	0.009925549
175	0x3d3593ca	0.044330396
176	0x3ce0ebfe	0.02745628
177	0x3c8646b0	0.016391128
178	0xbda1301a	-0.07870503
179	0x3cfc91a5	0.030831167
180	0x3df8fe16	0.12157838
181	0x3e4e1c52	0.20127991
182	0x3dad4d37	0.08461993
183	0x3d5cf340	0.05394292
184	0x3e10d681	0.14144327
185	0xbd652316	-0.055941664
186	0xbd68e898	-0.056862444
187	0xbd800e51	-0.06252731
188	0xbe0f8326	-0.14014873
189	0x3e8261a3	0.25465116
190	0x3e39255f	0.18080662
191	0x3d06c07d	0.032898415
192	0x3da260f7	0.07928651
193	0x3d82e0fd	0.06390569
194	0xbd7e586d	-0.06209605
195	0x3d34ba4e	0.044122986
196	0x3cc222e4	0.023698278
197	0xbe21f5b6	-0.15816388
198	0xbedf9d09	-0.43674496
199	0xbe1e82b6	-0.1547955
200	0xbdf73d3d	-0.12072227
201	0xbc9ae897	-0.018909736
202	0x3d7d0908	0.06177619
203	0xbd7d38ea	-0.061821856
204	0x3e1ba5bb	0.1519994
205	0x3e8c4ddf	0.2740316
206	0x3e3d2e36	0.1847466
207	0xbbec0a0f	-0.0072033475
208	0x3e25a146	0.16174802
209	0x3c5ae140	0.013359368
210	0x3d5b9a70	0.05361408
211	0x3dbb2066	0.09137039
212	0xbe242236	-0.16028675
213	0x3d8057cf	0.06266748
214	0xbe5dff63	-0.21679454
215	0xbca23ae7	-0.019803477
216	0xbb98b755	-0.0046605268
217	0xbc9b717a	-0.018975008
218	0x3dc003e4	0.09375742
219	0xbb86f044	-0.0041179974
220	0x3c8a4076	0.01687644
221	0x3cb45527	0.02201326
222	0xbdd6bcdc	-0.10485241
223	0xbd11476c	-0.035468504
224	0xbde2ab14	-0.11067787
225	0x3cf44dd5	0.02982227
226	0x3e23cb48	0.15995514
227	0x3e69bbf5	0.22825606
228	0xbdda5286	-0.10660271
229	0xbc61266e	-0.0137420725
230	0x3dcb1dc4	0.09917787
231	0xbd3f9c26	-0.046779774
232	0xbd3c5e07	-0.04598811
233	0xbe50c9ad	-0.20389433
234	0xbdd756ef	-0.10514628
235	0xbdb1f36b	-0.086890064
236	0xbdd62dc4	-0.10457948
237	0xbca13087	-0.01967646
238	0xbc02c17c	-0.007980701
239	0xbabb229c	-0.0014277282
240	0xbda7f649	-0.08201272
241	0x3e50c661	0.20388176
242	0xbd9e3134	-0.077242285
243	0xbe087196	-0.1332458
244	0x3df10025	0.11767606
245	0xbc961d79	-0.0183246
246	0x3d205b23	0.039149415
247	0x3e61b1e1	0.22040512
248	0xbccd1be2	-0.02503771
249	0xbd458e7d	-0.04823159
250	0x3d82dd27	0.06389838
251	0x3dce8e59	0.100857444
252	0xbe90b4ce	-0.28262943
253	0x3cf4c07d	0.029876942
254	0x3db044a6	0.08606844
255	0xbe2f19f5	-0.17099746

up1.3.bias f4 [12]
0	0x3da99477	0.082802705
1	0x3dc23538	0.09482807
2	0x3d88fb59	0.06688566
3	0x3ba317d7	0.004977207
4	0x3dba8cb5	0.09108869
5	0x3e031cdc	0.12803978
6	0x3c14c449	0.009080001
7	0x3d517d43	0.05114485
8	0x3d682869	0.056679163
9	0x3caa77d0	0.020809084
10	0x3cbfb241	0.023400428
11	0x3dc2055b	0.09473678
